networks/policy_network_9h.pth (torch, 511403 bytes, 79 tensors)

weight f4 [32, 20, 3, 3]
0	0xbe2aa32b	-0.16663806
1	0xbdd3251a	-0.10309811
2	0xbda93e5b	-0.082638465
3	0xbe3d36b4	-0.18477899
4	0xbe1097d6	-0.14120421
5	0xbe1b8955	-0.15189107
6	0xbe087515	-0.13325913
7	0xbe039def	-0.12853216
8	0xbda8ed2e	-0.082483634
9	0xbd8b5b48	-0.0680452
10	0xbe2064da	-0.15663472
11	0xbe01e69c	-0.12685627
12	0xbdb77ecc	-0.089597315
13	0xbdd3d6a7	-0.10343676
14	0xbe26505d	-0.16241594
15	0xbe2f1e68	-0.17101443
16	0xbe4a175f	-0.19735478
17	0xbe05e977	-0.13077341
18	0x3f2d50d2	0.67701447
19	0x3f45cf1a	0.77269137
20	0x3f34ffa6	0.7070259
21	0x3f2e7d81	0.68160254
22	0x3f3803f9	0.7188106
23	0x3f328224	0.6972983
24	0x3f3e7919	0.7440353
25	0x3f3cabef	0.7369985
26	0x3f2cd67c	0.6751478
27	0x3dd43e6d	0.10363469
28	0x3e27aef6	0.16375336
29	0x3e0db8e8	0.13840067
30	0x3e099cfa	0.13438788
31	0x3da41eaa	0.08013661
32	0x3df99951	0.12187446
33	0x3d9c2e24	0.07625988
34	0x3df9e266	0.12201385
35	0x3de0d780	0.10978603
36	0x3e2b9c90	0.16758943
37	0x3de4b480	0.1116724
38	0x3dbda108	0.0925923
39	0x3da3f87a	0.080063775
40	0x3dfb1edb	0.122617446
41	0x3d7683a5	0.06018414
42	0x3e632bff	0.22184752
43	0x3e0f1fb5	0.13976939
44	0x3e2e4224	0.17017418
45	0x3e73acf9	0.23796453
46	0x3e88d659	0.26726034
47	0x3eadd241	0.33949474
48	0x3e8bbf24	0.27294266
49	0x3e8f4dd9	0.2798908
50	0x3e9643cc	0.293486
51	0x3e64b26e	0.2233369
52	0x3e4a2ad0	0.19742894
53	0x3e4df752	0.20113876
54	0x3e9be28c	0.3044628
55	0x3e44f58e	0.19234297
56	0x3eaace21	0.3336039
57	0x3e567ead	0.2094676
58	0x3e368a70	0.17826247
59	0x3e24f8b0	0.16110492
60	0x3e6f7881	0.23385812
61	0x3e3ef996	0.18649897
62	0x3e91916b	0.28431258
63	0xbdd5bca7	-0.10436373
64	0xbdc0a529	-0.09406502
65	0xbdd9251a	-0.1060278
66	0xbdd008d3	-0.10157933
67	0xbc9db92c	-0.019253336
68	0xbd4ff09f	-0.050766584
69	0xbd2c0e19	-0.042005632
70	0x3cd4ead6	0.025990885
71	0x3d0f5279	0.03499076
72	0x3df502a4	0.11963394
73	0x3e3019e4	0.17197376
74	0x3e0fe8c4	0.14053637
75	0x3e3cb64f	0.1842892
76	0x3e0a8ac5	0.13529499
77	0x3e486f63	0.1957374
78	0xbb63ea07	-0.0034776942
79	0x3e325e36	0.17418751
80	0x3dbadfa4	0.09124687
81	0xbd173bbe	-0.03692221
82	0x3d7423df	0.05960452
83	0x3be7c96e	0.007073573
84	0xbd9d8eab	-0.076932274
85	0x3d8dd7f8	0.069259584
86	0x3d845166	0.06460838
87	0xbc824096	-0.015899938
88	0xbc87cbe1	-0.01657671
89	0xbcd7ddb6	-0.026350837
90	0xbc66eded	-0.014094812
91	0x3cce0a7c	0.025151484
92	0x3d1e1e8c	0.03860335
93	0x3d4bba20	0.04973805
94	0xbc80970f	-0.01569703
95	0x3cdcffbe	0.026977416
96	0x3d8dc3cf	0.06922113
97	0x3d0ae84a	0.033912934
98	0x3c64b675	0.013959517
99	0x3be1c2cc	0.0068896767
100	0xbc1466c2	-0.0090577025
101	0xbd1ba029	-0.037994538
102	0xbb6763cd	-0.0035307289
103	0xbdab4211	-0.083622105
104	0xbd1695da	-0.036764003
105	0x3dcbb58d	0.099467374
106	0x3ce5958d	0.028025413
107	0xbd450287	-0.048098113
108	0x3cc69e72	0.024245474
109	0xbb02f412	-0.0019981903
110	0x3be9ef37	0.0071391123
111	0x3c63c7ed	0.0139026465
112	0xbd0f5fa4	-0.03500332
113	0xbd8652e3	-0.06558778
114	0x3ce28e63	0.027655786
115	0xbc325fc1	-0.010887087
116	0x3d44c9e6	0.048044108
117	0x3ccbe6c3	0.02489031
118	0x3d19ab8f	0.037517127
119	0x3d6b972d	0.05751722
120	0xbc648acf	-0.01394911
121	0xbd8aa5e3	-0.06769922
122	0x3c85bab6	0.016324382
123	0x3c18eb24	0.009333406
124	0xbccda46d	-0.025102818
125	0xbbaa8b24	-0.005204575
126	0x3d89c839	0.067276426
127	0xbc6d00ca	-0.01446552
128	0x3c18d468	0.009327985
129	0x3c26ae28	0.010173358
130	0xbc379038	-0.011203818
131	0xbd74da87	-0.059778716
132	0xbd527113	-0.051377367
133	0x3d7974c4	0.060902372
134	0x3cf348c3	0.029697781
135	0xbd813a3e	-0.06309937
136	0x3c6a5457	0.014302335
137	0xbd9084b8	-0.07056564
138	0x3d45b594	0.04826887
139	0xbd66285f	-0.056190845
140	0xbc3e493b	-0.011614139
141	0x3d00b3bf	0.03142142
142	0x3d5739df	0.052545425
143	0x3c97f123	0.0185476
144	0xbc88c1dc	-0.016694002
145	0xbd02497b	-0.031808358
146	0xbd8f9084	-0.07009986
147	0x3caed022	0.02133948
148	0x3d566def	0.052350935
149	0xbd84cc5d	-0.06484292
150	0x3d8fbad0	0.070180535
151	0xbd5034ff	-0.05083179
152	0x3ce4c6db	0.027926853
153	0xbe48e40c	-0.19618243
154	0xbe1a9cab	-0.15098827
155	0xbe181f24	-0.14855629
156	0xbdfaa954	-0.12239328
157	0xbdc3fb7b	-0.095694505
158	0xbd1e25ba	-0.038610198
159	0xbd8e8fed	-0.069610454
160	0xbdb076b2	-0.08616389
161	0xbdd7a7e2	-0.10530068
162	0xbc85859a	-0.016299058
163	0xbd12fdca	-0.035886563
164	0x3d1076d0	0.03526956
165	0x3c2da83b	0.010599191
166	0xbdf34f42	-0.118803516
167	0xbe1b7aec	-0.1518361
168	0xbd12754a	-0.035756387
169	0xbdde4478	-0.10852903
170	0xbdfc4551	-0.123179086
171	0x3c8f9c6e	0.017530646
172	0xbd11b523	-0.035573136
173	0x3e1e3b2f	0.15452264
174	0x3d782d62	0.060590155
175	0x3d71e478	0.059055775
176	0x3d17bc78	0.037044972
177	0x3df252e3	0.11832216
178	0x3d8597bb	0.06523081
179	0x3e1727f6	0.14761338
180	0x3e6d60a7	0.23181401
181	0x3d1f7ea9	0.038939152
182	0x3e371f13	0.17882948
183	0x3ddf0328	0.10889274
184	0x3d9625f6	0.07331459
185	0x3dbe3599	0.09287567
186	0x3e67d19a	0.2263855
187	0x3e3443a4	0.17603928
188	0x3e6463a0	0.22303629
189	0x3e32e357	0.17469536
190	0x3e2b57ec	0.16732758
191	0x3e74c09e	0.23901603
192	0x3e07bfc8	0.13256752
193	0x3d356e67	0.04429474
194	0x3e347826	0.17623958
195	0x3dd2514b	0.10269412
196	0x3db8ec6d	0.0902947
197	0x3e8e2d82	0.27769095
198	0xbf0f0432	-0.55865777
199	0xbf03b459	-0.51447064
200	0xbee4b369	-0.4466813
201	0xbf0035ef	-0.50082296
202	0xbecc1375	-0.39858595
203	0xbeff06aa	-0.49809772
204	0xbf0b6939	-0.5445743
205	0xbefd6c5a	-0.49496728
206	0xbebf3c3e	-0.3735065
207	0xbce6a6ad	-0.02815565
208	0xbc5e5871	-0.013570891
209	0xbde16528	-0.11005622
210	0xbd81e0fc	-0.063417405
211	0xbd9fde64	-0.078060895
212	0x3c8dab24	0.01729352
213	0xbd572e96	-0.052534662
214	0xbba9ca98	-0.0051816218
215	0xbd0aaed9	-0.033858154
216	0x3e5178df	0.20456265
217	0x3d5f85a5	0.054570813
218	0x3e29061e	0.1650624
219	0x3e56b6fd	0.20968242
220	0x3e839385	0.25698486
221	0x3e2dd0e4	0.16974217
222	0x3d92a760	0.071608305
223	0x3e10a961	0.14127113
224	0x3ec1bd81	0.37839893
225	0xbe0122ba	-0.12610903
226	0xbd8f40f7	-0.06994813
227	0xbd846c9a	-0.064660266
228	0xbdf3fc78	-0.11913389
229	0x3c425766	0.011861658
230	0x3bc5262f	0.0060165147
231	0xbd190c24	-0.037365094
232	0x3d838f64	0.06423834
233	0xbe1fa942	-0.1559191
234	0xbe273fd9	-0.1633295
235	0x3a657b36	0.00087540166
236	0xbe1155dc	-0.14192909
237	0xbd5fe285	-0.054659385
238	0xbd578826	-0.052620076
239	0xbdb3b5d4	-0.08774915
240	0xbe0bfeb1	-0.13671376
241	0xbaec55ef	-0.0018030981
242	0xbe3297b5	-0.17440684
243	0xbc14fa31	-0.009092853
244	0x3d540672	0.05176396
245	0x3db4f22b	0.088352524
246	0x3d7a481b	0.06110392
247	0xbd3843ef	-0.04498666
248	0xbca37529	-0.019953327
249	0x3d6d42bf	0.057924982
250	0xbd21424f	-0.039369877
251	0x3d26f9a0	0.040765405
252	0x3d76e5a1	0.060277585
253	0x3d01bede	0.031676166
254	0x3e1389b2	0.14407995
255	0x3c798fed	0.0152320685

bias f4 [32]
0	0xbd2f471c	-0.042792425
1	0x3a51b907	0.00080002885
2	0x3ce7f3dd	0.028314525
3	0xbd8e584f	-0.06950437
4	0x3d02764f	0.03185111
5	0x3d8f6d2d	0.070032455
6	0x3e0c2c43	0.1368876
7	0x3dfbc5a5	0.12293557
8	0x3e2ce894	0.16885597
9	0xbd7e8ee8	-0.062148005
10	0x3d3a18f7	0.045433965
11	0xbd5997d5	-0.053123314
12	0xbc4b4d0a	-0.012408504
13	0x3d639844	0.055565134
14	0x3e7d6fd6	0.24749693
15	0x3d8fa884	0.07014564
16	0xbe06a4f0	-0.13148856
17	0xbdd25e02	-0.10271837
18	0xbdb89443	-0.09012654
19	0xbc3604fc	-0.011109587
20	0xbd6b3ed1	-0.057432953
21	0xbdd1679d	-0.10224841
22	0xbd16e3d9	-0.036838386
23	0x3d41a5f6	0.047277413
24	0xbc53a311	-0.012917296
25	0xbcfe80b8	-0.031067237
26	0xbd812dba	-0.0630755
27	0x3de971de	0.113986716
28	0x3bae3d9e	0.005317404
29	0xbccbd940	-0.024883866
30	0x3cc7f6ae	0.024409618
31	0x3d3b99b3	0.045800876

weight f4 [32]
0	0x3f67ae5b	0.9050042
1	0x3f6144ba	0.87995493
2	0x3f868e87	1.0512246
3	0x3fa68c68	1.3011599
4	0x3fa13796	1.2595088
5	0x3f8a0c57	1.0785016
6	0x3f2df932	0.67958367
7	0x3f542480	0.82868195
8	0x3f38716e	0.7204808
9	0x3f5d7edb	0.8652169
10	0x3f73376a	0.9500643
11	0x3f3ad436	0.7298006
12	0x3f767de4	0.96285844
13	0x3f6b8559	0.9200035
14	0x3f75df0b	0.9604346
15	0x3f6b1a96	0.9183744
16	0x3f8cb995	1.0994135
17	0x3f4f67c4	0.8101771
18	0x3f641d10	0.89106846
19	0x3ebb8da6	0.36631507
20	0x3f7f1635	0.9964326
21	0x3f8704dc	1.0548358
22	0x3f9aa85e	1.2082632
23	0x3f390ccc	0.7228515
24	0x3f554dc7	0.83321804
25	0x3f430dac	0.76192737
26	0x3f367674	0.71274495
27	0x3f724ca4	0.94648194
28	0x3f819454	1.0123391
29	0x3fa496ae	1.2858484
30	0x3f56131f	0.83622926
31	0x3f1a55e0	0.60287285

bias f4 [32]
0	0x3d08ff61	0.033446673
1	0x3e516fff	0.2045288
2	0x3e0b5b58	0.13609064
3	0x3e49814c	0.19678229
4	0x3edc6720	0.43047428
5	0xbdc04cbf	-0.09389638
6	0xbeb990c2	-0.36243254
7	0xbf14aff1	-0.58080965
8	0xbda89b3e	-0.08232735
9	0xbe55a5c0	-0.2086401
10	0xbe9197de	-0.28436178
11	0xbe3661fa	-0.17810813
12	0xbca1ddfb	-0.019759169
13	0xbe244f44	-0.16045862
14	0x3dc145d8	0.0943715
15	0xbec33641	-0.3812733
16	0xbe69ebe9	-0.22843899
17	0xbf3bf8cf	-0.73426527
18	0xbf67075f	-0.9024562
19	0xbeec6393	-0.4616972
20	0x3e370807	0.17874156
21	0xbeac60ab	-0.33667502
22	0xbd29fd21	-0.04150117
23	0x3d529c82	0.05141879
24	0xbe50c6f4	-0.20388395
25	0xbdccbcc3	-0.09996941
26	0xbf080b65	-0.53142387
27	0xbe9f382a	-0.31097537
28	0xbed4c5b7	-0.41557094
29	0x3e016ab7	0.12638365
30	0x3ca81f77	0.020522816
31	0xbe3db407	-0.18525706

running_mean f4 [32]
0	0xbfc87c2a	-1.5662892
1	0x3fe6ffda	1.804683
2	0xc02b335c	-2.6750097
3	0x3fdcb3ad	1.7242333
4	0xc0382bf7	-2.8776834
5	0x3eda09a0	0.42585468
6	0x4076293e	3.8462672
7	0xc0409fc2	-3.0097508
8	0xbfc229f6	-1.5169055
9	0xc01780b1	-2.3672297
10	0x400913b0	2.1418266
11	0xbfd2ddb3	-1.6473907
12	0xc00a763e	-2.163467
13	0xc033ea76	-2.8111854
14	0x40863774	4.194269
15	0xc0273e71	-2.6131861
16	0xc08429a4	-4.130083
17	0xc03b9dd1	-2.9315073
18	0xc04444d8	-3.066702
19	0x401d3e37	2.4569223
20	0x3fbc6cd0	1.4720707
21	0x3f034d65	0.5128997
22	0xc02beb41	-2.6862338
23	0xbe9327c5	-0.2874128
24	0x3f9e6b5b	1.2376512
25	0xbf24ea34	-0.64419866
26	0xc03cba58	-2.9488735
27	0xc0373090	-2.862339
28	0xc0151964	-2.3296747
29	0xbfe62f44	-1.7983174
30	0x3f99faec	1.20297
31	0x40354533	2.8323486

running_var f4 [32]
0	0x3fbbe2de	1.4678609
1	0x3f6b8e94	0.9201443
2	0x403affcc	2.9218626
3	0x401a3e4b	2.410052
4	0x4092ea39	4.5910916
5	0x3f10b3c0	0.56524277
6	0x40208e8e	2.5087008
7	0x3f168e00	0.58810425
8	0x400501f6	2.0782447
9	0x3fe6343b	1.798469
10	0x3f86a530	1.0519161
11	0x3f8d8b06	1.1058052
12	0x40056fe2	2.0849538
13	0x3ff90288	1.9453897
14	0x406b8264	3.6798334
15	0x3f08d83d	0.53454953
16	0x402cbc65	2.6989987
17	0x3e184b99	0.14872588
18	0x3e310b09	0.17289366
19	0x3f6b45d4	0.91903424
20	0x3f9c1b3f	1.2195815
21	0x3f45bf93	0.77245444
22	0x3fd52d49	1.6654445
23	0x3ea73735	0.32659307
24	0x3f4980ca	0.7871214
25	0x3faa2617	1.3292874
26	0x3fc4a9cb	1.5364317
27	0x4012d8a1	2.294472
28	0x3f9ba837	1.216071
29	0x40539d04	3.3064585
30	0x3f591137	0.8479189
31	0x401c9044	2.4463053

weight f4 [32, 32, 3, 3]
0	0xbe6f8903	-0.2339211
1	0xbe5af205	-0.21381386
2	0xbe44b16f	-0.1920831
3	0xbea09581	-0.31364062
4	0xbe821859	-0.254092
5	0xbe5e924e	-0.21735498
6	0xbe902b7b	-0.28158173
7	0xbe942d8b	-0.28940997
8	0xbe7356a2	-0.23763517
9	0x3e5e3635	0.21700366
10	0x3e1b5b28	0.15171492
11	0x3e500f01	0.20318224
12	0x3e1fea49	0.15616716
13	0x3e130cf3	0.14360408
14	0x3e4fd957	0.20297752
15	0x3de1ee29	0.110317536
16	0x3e2338d3	0.15939645
17	0x3e075048	0.13214219
18	0x3d30c7ca	0.043159284
19	0x3d0f17c0	0.03493476
20	0xbc4c2909	-0.012460955
21	0xbd6c4c9c	-0.057690248
22	0xbda1cced	-0.079004146
23	0x3c0e6f0a	0.008693466
24	0xbcde0137	-0.027100189
25	0x3b818704	0.0039528627
26	0xbd28c22b	-0.041200798
27	0x3d8423bb	0.064521275
28	0x3d3e0fb7	0.046401706
29	0x3d80811e	0.06274627
30	0x3d19caa1	0.037546758
31	0xbcb41194	-0.021981038
32	0xbc4f7e59	-0.012664401
33	0xbc572941	-0.013132394
34	0x3dc30290	0.09521973
35	0x3cc4ba54	0.02401463
36	0xbe6de72a	-0.23232713
37	0xbe2a69ac	-0.16641873
38	0xbe39edd3	-0.18157129
39	0xbe7d4ebd	-0.24737068
40	0xbe7b4dd5	-0.2454141
41	0xbe326dd2	-0.17424706
42	0xbe3ca77e	-0.18423268
43	0xbe55c510	-0.20875955
44	0xbe531c23	-0.20616202
45	0xbdb34c3b	-0.08754774
46	0xbca42b32	-0.020040128
47	0xbd734cad	-0.059399296
48	0xbc256b5e	-0.010096399
49	0xbcebad52	-0.028769169
50	0xbd9e6ece	-0.07735978
51	0xbd766a50	-0.06015998
52	0xbd7f9653	-0.06239922
53	0xbc80df7a	-0.015731562
54	0xbdf6c7ab	-0.120498024
55	0xbdbd216e	-0.09234892
56	0xbc75abbc	-0.014994558
57	0xbe13d17c	-0.1443538
58	0xbd213d62	-0.03936518
59	0xbc02c863	-0.007982346
60	0xbdf3f506	-0.11911969
61	0xbe022ab1	-0.12711598
62	0x3d02bd27	0.03191867
63	0xbe107bc9	-0.1410972
64	0xbdef9152	-0.116976395
65	0xbd673262	-0.056444533
66	0xbe047b5a	-0.1293768
67	0xbda9e088	-0.08294779
68	0xbe0542eb	-0.13013808
69	0xbe013220	-0.12616777
70	0xbe00d739	-0.12582101
71	0xbd2b6321	-0.041842584
72	0xbdcba98c	-0.09944448
73	0xbe2983e9	-0.16554226
74	0xbe138faf	-0.1441028
75	0xbd840d92	-0.06447901
76	0xbe1af7cf	-0.15133594
77	0xbd72cd27	-0.05927768
78	0xbd95e73e	-0.073194966
79	0xbdd7258a	-0.10505207
80	0xbdf34fa5	-0.11880425
81	0x3d01d571	0.031697694
82	0x3bc82bc8	0.0061087348
83	0xbd126b2e	-0.035746746
84	0x3d532e0b	0.051557582
85	0x3b6a2a4a	0.0035730773
86	0x3b461adc	0.0030228412
87	0x3d5337f2	0.051567025
88	0x3a96dc6f	0.0011509786
89	0x3d9ce940	0.076616764
90	0xbe2eb918	-0.17062795
91	0xbe05e257	-0.13074623
92	0xbe2d3316	-0.16914019
93	0xbe310660	-0.17287588
94	0xbe04383e	-0.1291208
95	0xbdf9094d	-0.12159977
96	0xbe1a8a89	-0.1509191
97	0xbe22ce3d	-0.15898986
98	0xbd9aaead	-0.07552848
99	0xbe7f9192	-0.24957874
100	0xbe2ec54f	-0.17067455
101	0xbdfad14a	-0.1224695
102	0xbe6203c5	-0.2207175
103	0xbe61f958	-0.22067773
104	0xbe3297b7	-0.17440687
105	0xbe52624f	-0.20545314
106	0xbe2776b5	-0.16353877
107	0xbddf59be	-0.10905789
108	0xbd55ff73	-0.05224557
109	0xbda6a93c	-0.08137748
110	0xbe09596c	-0.13413018
111	0xbde96f97	-0.11398237
112	0xbd635eb6	-0.055510245
113	0xbd824971	-0.06361664
114	0xbdb552d7	-0.08853691
115	0xbdcbd538	-0.099527776
116	0xbd05d1e1	-0.03267086
117	0xbd9ecf76	-0.07754414
118	0xbdb1f7a1	-0.086898096
119	0xbd972600	-0.07380295
120	0xbd1e79b9	-0.038690303
121	0xbe14a73f	-0.14516924
122	0xbcd60d90	-0.026129514
123	0xbd6b5198	-0.05745086
124	0xbd506692	-0.05087907
125	0x3bf191b2	0.0073721046
126	0x3daf8cbe	0.08571766
127	0x3d3a1f68	0.045440108
128	0x3d90e164	0.0707424
129	0x3da30e77	0.07961743
130	0x3c577b9c	0.013152029
131	0x3ce4f9b1	0.027951093
132	0x3d04341a	0.03227625
133	0x3d326dc0	0.043561697
134	0x3d86e5cb	0.06586798
135	0xbcee13a0	-0.029062092
136	0xbca238de	-0.019802507
137	0xbcdd7db7	-0.027037485
138	0x3cc69255	0.024239698
139	0x3cde4185	0.027130852
140	0xbcc7ce12	-0.024390254
141	0xbd177581	-0.036977295
142	0xbde63784	-0.112410575
143	0xbc81b1e8	-0.015831903
144	0xbdc24a10	-0.094867826
145	0xbd81948a	-0.0632716
146	0xbd787385	-0.060657043
147	0xbe0eb12f	-0.13934778
148	0xbd92fbec	-0.071769565
149	0xbdc991a1	-0.0984223
150	0xbd644c23	-0.055736672
151	0xbe40c416	-0.18824801
152	0xbdec76dd	-0.11546109
153	0xbd8eacfc	-0.06966588
154	0xbe2a98cd	-0.16659851
155	0xbda26ad4	-0.07930532
156	0xbdee768a	-0.11643703
157	0xbe107610	-0.14107537
158	0xbe1b7f74	-0.15185338
159	0xbe027b43	-0.12742333
160	0xbe19a0a3	-0.15002684
161	0xbda96109	-0.08270461
162	0x3d060a7b	0.03272484
163	0xbd6a934b	-0.057269376
164	0x3cd16147	0.02555908
165	0xbd5b779c	-0.053580865
166	0xbe2eadf7	-0.1705855
167	0x3c09f273	0.008419621
168	0xbd9d41a0	-0.076785326
169	0xbe12f10b	-0.14349763
170	0xbc9f11dc	-0.019417696
171	0xbbca25f7	-0.0061690765
172	0xbcce8c0b	-0.025213262
173	0x3d309168	0.04310742
174	0x3bd3a954	0.0064593945
175	0xbd8a8d88	-0.06765276
176	0xbd13e89d	-0.03611051
177	0xbd176def	-0.036970075
178	0xbd35398e	-0.04424434
179	0xbc4feb87	-0.012690431
180	0x3c8bfc93	0.01708821
181	0x3da74f2c	0.08169398
182	0x3d93169f	0.07182049
183	0x3dd887dd	0.10572789
184	0x3d463902	0.04839421
185	0x3d5447d5	0.051826317
186	0x3d9eb6a8	0.07749683
187	0x3df28423	0.11841609
188	0x3dc84455	0.09778658
189	0xbdad311d	-0.08456633
190	0xbd92db2f	-0.07170712
191	0xbd4a1cb1	-0.04934377
192	0xbb678dad	-0.0035332248
193	0xbd555774	-0.052085355
194	0xbd4fba93	-0.05071504
195	0xbdc78b97	-0.097434215
196	0xbdf8e5b2	-0.12153186
197	0xbdbc3277	-0.09189313
198	0xbdf5ab3a	-0.119955495
199	0x3aa07fa5	0.0012245072
200	0x3d364e82	0.044508465
201	0xbc33d4e6	-0.010976052
202	0xbdd7dbb7	-0.10539954
203	0xbcf42d1f	-0.029806672
204	0xbd2fdbc4	-0.042934194
205	0xbdb3788f	-0.08763229
206	0xbdcf076c	-0.101088375
207	0x3d071d5e	0.03298699
208	0x3d4045ff	0.046941753
209	0x3c5583a1	0.013031871
210	0x3d272556	0.04080709
211	0x3d83b13b	0.064302884
212	0x3d5d9cc5	0.054104585
213	0x3d8501ff	0.06494521
214	0x3d06269c	0.032751665
215	0x3d675ba6	0.056483887
216	0xbe0b6dc3	-0.1361609
217	0xbe3d22ee	-0.18470356
218	0xbe485e5f	-0.1956725
219	0xbe40bc3a	-0.18821803
220	0xbe454398	-0.19264066
221	0xbe25d106	-0.16193017
222	0xbe568bb3	-0.20951729
223	0xbde33a3c	-0.11095092
224	0xbe0d6a66	-0.13810119
225	0x3ceb77e7	0.028743697
226	0xbd483a98	-0.048884004
227	0xbd38d3e8	-0.045123965
228	0xbd2094c5	-0.039204378
229	0xbd5a3c21	-0.05328
230	0xbca6bb84	-0.020353086
231	0xbd2bcf91	-0.041945998
232	0xbcd036c3	-0.025416737
233	0xbdadf2c3	-0.08493569
234	0xbd645590	-0.05574566
235	0xbda91b99	-0.08257217
236	0xbdc3450e	-0.095346555
237	0xbc590b38	-0.013247304
238	0xbdb19a71	-0.086720355
239	0xbc3bf8d5	-0.0114729
240	0xbd05053a	-0.032475688
241	0xbd93c55b	-0.07215377
242	0xbdbb3715	-0.091413654
243	0xbe178df3	-0.14800243
244	0xbe373d17	-0.17894398
245	0xbd2b7a0f	-0.04186445
246	0xbe221e3a	-0.15831843
247	0xbe38b9e8	-0.18039668
248	0xbe13f4a4	-0.14448792
249	0xbdc438c1	-0.095811374
250	0xbe0154d9	-0.12630023
251	0xbd6ce4e0	-0.05783546
252	0xbe349174	-0.17633611
253	0xbe391a56	-0.18076453
254	0xbdf9168d	-0.12162504
255	0xbe6e71e9	-0.23285641

bias f4 [32]
0	0x3d4fbe8c	0.05071883
1	0x3d4825d0	0.048864186
2	0x3dfaa4dd	0.122384764
3	0xbc2fc549	-0.010728189
4	0xbc3543b0	-0.011063501
5	0x3e45a395	0.19300683
6	0xbd48f975	-0.049066026
7	0xbdee1c11	-0.11626447
8	0x3cee5ac4	0.029096015
9	0x3d4e6a58	0.050394386
10	0xbd459de5	-0.048246283
11	0xbce7f8e9	-0.028316932
12	0xbd9f759f	-0.07786106
13	0x3c422e3f	0.011851846
14	0x3e234f2f	0.15948175
15	0x3cb1d94b	0.021710059
16	0x3d82a4cb	0.06379088
17	0x3df926b2	0.12165584
18	0xbdb874cf	-0.090066545
19	0x3db80286	0.08984856
20	0xbde58f26	-0.11208944
21	0x3db2d2cc	0.087316126
22	0xbcf76dd1	-0.030203732
23	0xbc9b5b15	-0.01896433
24	0x3c0e3654	0.008679945
25	0xbc04e6c4	-0.008111659
26	0xbd3bbcb7	-0.04583427
27	0x3dfdb375	0.12387744
28	0x3d9ad6e7	0.075605206
29	0xbd5abf89	-0.05340532
30	0x3aa5f097	0.0012660202
31	0x3da511a6	0.08060007

weight f4 [32]
0	0x3f9349ac	1.1506858
1	0x3f49846a	0.7871767
2	0x3fa988d5	1.3244883
3	0x3f23bd7d	0.6396101
4	0x3f8566d1	1.0422002
5	0x3f91208c	1.1338058
6	0x3f3fb345	0.7488292
7	0x3f490b66	0.7853302
8	0x3f2e551b	0.6809861
9	0x3f47fc4e	0.7811936
10	0x3ec8ba4d	0.39204636
11	0x3f57bf70	0.84276485
12	0x3f422ee5	0.75852805
13	0x3f2c787a	0.6737133
14	0x3f3d8ed1	0.74046046
15	0x3f2e3d14	0.6806195
16	0x3ebf8484	0.3740579
17	0x3f97181a	1.180423
18	0x3f5c71fb	0.8611142
19	0x3ea8e295	0.32985368
20	0x3f9beab3	1.2181
21	0x3f1f46b6	0.6221727
22	0x3fb084a5	1.379048
23	0x3f896e97	1.0736874
24	0x3f5deb45	0.8668712
25	0x3f504d71	0.81368166
26	0x3f84613f	1.0342177
27	0x3f9e3cc9	1.23623
28	0x3f152874	0.5826485
29	0x3fa5c054	1.2949319
30	0x3f5eb63f	0.86996835
31	0x3f4f3c55	0.80951434

bias f4 [32]
0	0xbe852e3b	-0.26011834
1	0xbf0728c3	-0.5279657
2	0x3ecb1ee4	0.39672005
3	0xbf5a8936	-0.8536562
4	0x3f24e303	0.6440889
5	0x3e3ffe14	0.18749267
6	0xbf137e16	-0.57614267
7	0xbf777750	-0.9666643
8	0x3e3f68ea	0.18692365
9	0xbeefe97a	-0.46857816
10	0xbe8baaac	-0.2727865
11	0xbeb6ea8e	-0.35725826
12	0xbf0222f6	-0.50834596
13	0xbef17f63	-0.471675
14	0xbd375351	-0.04475719
15	0xbdbbb8e3	-0.09166124
16	0xbf4ba5ea	-0.7955004
17	0x3d6809a2	0.05664981
18	0xbf8d1617	-1.1022366
19	0xbf663e51	-0.8993884
20	0x3e32af04	0.17449576
21	0xbf0771cf	-0.52908033
22	0x3e587f99	0.21142425
23	0xbf141b92	-0.5785457
24	0xbeecc8a0	-0.46246815
25	0x3cb384e6	0.021913957
26	0xbd2a5c8c	-0.041592166
27	0xbf2913ae	-0.66045654
28	0xbf3fa62f	-0.7486295
29	0x3e1e76f2	0.15475062
30	0x3de7b6a4	0.11314133
31	0xbe909c4d	-0.28244248

running_mean f4 [32]
0	0xc0acf48e	-5.404853
1	0xc025c68a	-2.5902429
2	0xc00a46d2	-2.1605725
3	0x3fcf8f69	1.621564
4	0x41036c8d	8.214002
5	0x3f6cee37	0.92550987
6	0x408e335a	4.4437685
7	0x3fd3b207	1.6538705
8	0xc0eb34d4	-7.3501987
9	0xbfcd0c49	-1.6019374
10	0x40642265	3.5645993
11	0xbfb53b1e	-1.4158666
12	0x40dd8e47	6.923618
13	0x40ab3d94	5.351267
14	0xbf17acf9	-0.5924831
15	0xc0745f2f	-3.8183095
16	0x408a3f8e	4.320258
17	0xc10fbf45	-8.984197
18	0x406b42c5	3.6759503
19	0x3ffe691b	1.9875826
20	0x408ea31a	4.45741
21	0x3fd7c186	1.6855934
22	0x411a4dfb	9.644038
23	0x40b2a701	5.582886
24	0xbfbc6bd4	-1.4720407
25	0xc10e7507	-8.903571
26	0xc0b642a7	-5.6956363
27	0x41133c97	9.202292
28	0x40a94f5d	5.290938
29	0x413691cb	11.410594
30	0x402168bb	2.5220172
31	0xc103db82	-8.241091

running_var f4 [32]
0	0x42868e23	67.27761
1	0x422f5a16	43.837975
2	0x42269325	41.643696
3	0x4130c642	11.048403
4	0x42754912	61.321358
5	0x4204b913	33.180737
6	0x415e4f4c	13.89436
7	0x41c1922e	24.196377
8	0x42bb66d9	93.700874
9	0x41f369a9	30.426592
10	0x417a5bbf	15.647399
11	0x42600b8e	56.011284
12	0x420d1145	35.266865
13	0x416ab186	14.668341
14	0x425522f8	53.28415
15	0x413c468b	11.767222
16	0x41b4a705	22.581553
17	0x4299c9eb	76.89437
18	0x41269641	10.411683
19	0x40c5841a	6.1723757
20	0x4287062b	67.51205
21	0x4207e738	33.9758
22	0x4299cf59	76.904976
23	0x4201166a	32.27189
24	0x41c14d7a	24.16283
25	0x422aebcc	42.73027
26	0x41185869	9.5215845
27	0x426e2b44	59.54225
28	0x41a2579c	20.292778
29	0x42c8d67b	100.41891
30	0x42350f0e	45.2647
31	0x414f4e97	12.956687

weight f4 [32, 32, 3, 3]
0	0x3c2fba6d	0.0107256
1	0xbd80cb95	-0.0628883
2	0xbb8de81f	-0.0043306495
3	0x3cbaa499	0.022783564
4	0xbd6e8a89	-0.058237586
5	0x3d69425e	0.05694806
6	0x3ca75814	0.020427741
7	0xbccf9349	-0.025338786
8	0x3d3f9bbe	0.046779387
9	0x3e13b7a4	0.14425522
10	0x3d624244	0.055238977
11	0x3d58d79a	0.05293999
12	0x3dacc39f	0.08435749
13	0x3dacc329	0.08435661
14	0x3dc94f8c	0.098296255
15	0x3d888a1f	0.066669695
16	0x3e0a2f31	0.13494565
17	0x3d3ccf57	0.046096172
18	0x3ceda031	0.02900705
19	0xbd046d22	-0.03233064
20	0x3d3963d6	0.045261227
21	0x3d6c1a41	0.057642225
22	0x3c8a8bf9	0.016912447
23	0xbc4bcabb	-0.012438471
24	0xbd18afe1	-0.037277106
25	0xbcf800ff	-0.030273912
26	0xbcffb4a0	-0.031214058
27	0xbd6a7375	-0.057239015
28	0xbd0e267e	-0.034704678
29	0xbc91eff4	-0.017814614
30	0xbd3dd6e5	-0.046347518
31	0x3c0c44d4	0.008561332
32	0xbd63cd6c	-0.055615827
33	0x3b7dffa1	0.0038757103
34	0x3cc626d5	0.024188438
35	0xb9b6a864	-0.00034839206
36	0xbd16052d	-0.03662603
37	0xbc998871	-0.018741818
38	0x3b8d80bf	0.0043183262
39	0xbd193426	-0.03740325
40	0x3bcfc2fa	0.0063403817
41	0x3d0edd7a	0.034879185
42	0x3d263164	0.040574446
43	0xbcc92cd0	-0.024557501
44	0xbc947747	-0.018123282
45	0xbab77458	-0.0013996465
46	0x3c9c8210	0.019104987
47	0x3d46e5ec	0.048559114
48	0x3c9461fd	0.01811313
49	0x3d5bff7e	0.053710453
50	0x3cac4916	0.021030944
51	0x3ce046ce	0.027377512
52	0x3c16f4e1	0.009213657
53	0x3dbb949e	0.09159206
54	0xbd84adb1	-0.064784415
55	0xbd597835	-0.053093154
56	0xb7d33bff	-2.5181098e-05
57	0xbda13468	-0.07871324
58	0x3d1fc0f7	0.039002385
59	0x3d9e6d18	0.07735652
60	0xbd8e6ad8	-0.069539726
61	0x3d976858	0.07392949
62	0x3d8bf5e2	0.06834008
63	0x3e0bacc7	0.13640128
64	0x3e0ced25	0.13762338
65	0x3e1cd1b7	0.15314375
66	0x3dd3d1e2	0.10342766
67	0x3d9378af	0.07200753
68	0x3e08b1fc	0.13349146
69	0x3e0a9b20	0.13535738
70	0x3dff515f	0.12466692
71	0x3e2bc936	0.16775975
72	0x3de30582	0.11085035
73	0x3dc81fa3	0.09771659
74	0x3def4008	0.11682135
75	0x3e0c2f12	0.13689831
76	0x3dc3422b	0.09534105
77	0x3e09d428	0.13459837
78	0x3d99fa28	0.07518417
79	0x3e1405b4	0.144553
80	0x3d684ad6	0.056711994
81	0x3d74b347	0.059741285
82	0x3d439ad2	0.04775507
83	0x3d907813	0.07054152
84	0x3d8acf2e	0.06777798
85	0x3d91e0db	0.07122966
86	0x3dd70e1e	0.105007395
87	0x3ce336ae	0.027736034
88	0x3e0ff552	0.14058426
89	0x3d88c176	0.06677525
90	0xbceb2114	-0.028702296
91	0x3d93de91	0.072201855
92	0x3e3b80b9	0.18310823
93	0x3dc42b0a	0.095785215
94	0x3e230459	0.15919627
95	0x3e10ccb3	0.14140587
96	0x3dad79f4	0.08470526
97	0x3d6f5218	0.0584279
98	0x3e1370b6	0.14398465
99	0xbb6d9eef	-0.0036258062
100	0x3988206d	0.000259641
101	0xbd833063	-0.064057134
102	0xbdca4720	-0.09876847
103	0x3c30f07e	0.010799525
104	0xbd8eeaa5	-0.06978349
105	0xbdaa1a7d	-0.083058335
106	0xbc9627eb	-0.018329581
107	0xbd86a4be	-0.06574391
108	0x3e16e16f	0.14734434
109	0x3e1b3c80	0.15159798
110	0x3dfe2749	0.12409837
111	0x3da5b4bb	0.08091112
112	0x3e08592a	0.13315263
113	0x3ddb2cb4	0.10701886
114	0x3e36d337	0.1785401
115	0x3df74cbc	0.12075183
116	0x3e305410	0.17219567
117	0xbb87d2a4	-0.0041449834
118	0xbce9f900	-0.028561115
119	0xbcc16c36	-0.02361117
120	0x3d01e136	0.03170892
121	0x3d4dc649	0.050237928
122	0xbd420e19	-0.047376726
123	0x3d36042e	0.04443758
124	0x3d6586a3	0.056036603
125	0xbcc78223	-0.024354046
126	0xbd2583d6	-0.04040893
127	0xbb4ae91e	-0.0030961703
128	0x3c2bf052	0.010494309
129	0xbcefa193	-0.02925185
130	0x3d4647b8	0.04840824
131	0xbc979580	-0.018503904
132	0x3cf850d1	0.030311974
133	0x3b711ecd	0.003679204
134	0xbc9239f7	-0.017849905
135	0x3d2accc3	0.041699182
136	0xbc062dec	-0.00818966
137	0xbbb24ecd	-0.0054415227
138	0xbcbe26fc	-0.023211949
139	0xbcca2482	-0.024675611
140	0x3d61fc8b	0.055172484
141	0x3d50fcae	0.051022224
142	0xbd1d42ea	-0.038393892
143	0x3c4d6ff3	0.012538898
144	0x3d687580	0.05675268
145	0x3d4c3d33	0.04986305
146	0x3dce6db0	0.10079515
147	0x3cf2352b	0.029566368
148	0x3d9adda6	0.07561807
149	0x3df08054	0.11743227
150	0x3d42f294	0.04759462
151	0x3dfb2c31	0.12264288
152	0x3dacf48d	0.08445082
153	0x3e008090	0.12549043
154	0x3dd3ab9f	0.103354685
155	0x3dfe1551	0.124064095
156	0x3ddf47cf	0.10902368
157	0x3e3d87fc	0.18508905
158	0x3df441e1	0.11926628
159	0x3e2da79f	0.16958474
160	0x3ddc90f9	0.10769839
161	0x3dced749	0.10099656
162	0x3de9495f	0.113909476
163	0x3e16fd4b	0.14745061
164	0x3e1f4435	0.15553363
165	0x3e540628	0.20705473
166	0x3e5e071b	0.21682398
167	0x3e32240e	0.17396566
168	0x3e4de31a	0.20106164
169	0x3e430032	0.19043043
170	0x3e4209bb	0.18949024
171	0x3dff5b84	0.12468627
172	0x3de08215	0.10962311
173	0x3dc45cfc	0.09588048
174	0x3dfc9923	0.12333896
175	0x3dc889c8	0.09791905
176	0x3de61cec	0.11235985
177	0x3d51b61b	0.05119906
178	0x3db3612e	0.0875877
179	0x3dd2c812	0.10292067
180	0xbd7c508c	-0.061600253
181	0x3ccc8bce	0.024969008
182	0x3d4e84fb	0.05041979
183	0x3ca63698	0.020289704
184	0x3c97346c	0.018457614
185	0x3d802c7b	0.06258484
186	0xbda52e7c	-0.08065507
187	0xbab6e26a	-0.0013952975
188	0x3d31a293	0.043367933
189	0x3d977247	0.073948435
190	0x3d7f2cfe	0.062298767
191	0x3d17b05b	0.03703342
192	0x3e058bd9	0.13041629
193	0x3dad0196	0.08447568
194	0x3dbcb92c	0.09215006
195	0x3e129e16	0.14318117
196	0x3dafa326	0.0857604
197	0x3de83092	0.11337389
198	0x3e1ee7e2	0.15518144
199	0x3d8ddef0	0.069272876
200	0x3ddea37f	0.10871028
201	0x3e460651	0.19338347
202	0x3e03c818	0.12869298
203	0x3e65c465	0.224382
204	0x3e2e2576	0.17006478
205	0x3e59460b	0.21218126
206	0x3e4d766d	0.20064707
207	0x3e0aa5bc	0.13539785
208	0x3def9690	0.116986394
209	0x3d8c0200	0.06836319
210	0x3e03272d	0.12807913
211	0x3db6deed	0.089292385
212	0x3e0e11dd	0.13874002
213	0x3e0fef77	0.14056192
214	0x3e278e07	0.16362773
215	0x3e46f7f3	0.19430523
216	0xbd029fdf	-0.031890746
217	0xbd4bc2a2	-0.049746163
218	0xbd59e94b	-0.053201
219	0xbd0cb094	-0.034348086
220	0xbdb04b2e	-0.086080894
221	0xbd86affa	-0.065765336
222	0xbd18a5e8	-0.037267596
223	0xbdd9ed30	-0.10640943
224	0xbd9ca27a	-0.076481774
225	0x3d96283f	0.07331895
226	0x3de5ea3f	0.112263195
227	0x3d571023	0.052505624
228	0x3d6c3ad0	0.057673275
229	0x3ddb15a9	0.10697491
230	0x3d8a9809	0.0676728
231	0x3df9181c	0.121628016
232	0x3dd1839a	0.10230179
233	0x3dd925a6	0.10602884
234	0x3dde7fb8	0.10864204
235	0x3e0915e8	0.13387263
236	0x3ded2561	0.11579395
237	0x3d9dab61	0.076987036
238	0x3e0e453b	0.13893597
239	0x3dd963cd	0.106147386
240	0x3da83cb9	0.08214707
241	0x3d27f061	0.041000728
242	0x3dfbb1fe	0.12289809
243	0x3e3cd317	0.184399
244	0x3e235052	0.15948609
245	0x3e3d381e	0.18478438
246	0x3d9373c4	0.07199815
247	0x3dec1e60	0.11529231
248	0x3e4e0a44	0.20121104
249	0x3e7257aa	0.23666254
250	0x3e6cc927	0.23123609
251	0x3e4d250e	0.20033666
252	0xbc4ab357	-0.0123718595
253	0x3ce2e58b	0.027697345
254	0x3d472129	0.04861561
255	0x3b68c705	0.0035519016

bias f4 [32]
0	0xbd8f889e	-0.070084795
1	0xbd099638	-0.033590525
2	0xbce97ba6	-0.028501343
3	0x3d4fca06	0.050729774
4	0x3dace7ad	0.08442626
5	0xbda8b462	-0.0823753
6	0xbc198996	-0.009371182
7	0x3dee28c0	0.11628866
8	0x3b9bcbd8	0.0047545247
9	0xbe00f43d	-0.1259317
10	0xbd8e25cf	-0.06940805
11	0xbe055dd2	-0.13024071
12	0xbd0467a3	-0.0323254
13	0xbdc0dd97	-0.09417265
14	0xbdfec73b	-0.12440344
15	0x3d6e80ab	0.058228176
16	0x3db049cd	0.086078264
17	0xbd02bc48	-0.03191784
18	0x3d31cbab	0.043407124
19	0x3d9717f2	0.07377614
20	0x3de6dcb8	0.112725675
21	0xbbcd1a0a	-0.0062592076
22	0x3b58a796	0.0033058873
23	0x3daacf02	0.08340265
24	0x3d970d8f	0.07375633
25	0xb8072fd3	-3.2231048e-05
26	0xbc4ceee7	-0.012508131
27	0x3d04c7b9	0.032417033
28	0x3d324113	0.04351909
29	0xbd141d1e	-0.03616058
30	0x3d06ca9b	0.032908063
31	0x3ddb7740	0.107161045

weight f4 [32]
0	0x3f60104d	0.87524873
1	0x3f5c881a	0.86145175
2	0x3f70fdea	0.9413744
3	0x3f3e4454	0.7432301
4	0x3f83fbe6	1.0311248
5	0x3f990d33	1.1957153
6	0x3f35ef50	0.71068287
7	0x3f536e77	0.8259043
8	0x3f7453c6	0.9544033
9	0x3ee59472	0.44839817
10	0x3f02f35a	0.51152575
11	0x3f4f0cd7	0.8087897
12	0x3f6b13d6	0.9182714
13	0x3f0ade58	0.5424552
14	0x3f4782c7	0.77933925
15	0x3f496199	0.7866455
16	0x3fa57c3b	1.2928537
17	0x3f179169	0.59206253
18	0x3f9e8361	1.2383844
19	0x3f2ce3e9	0.67535263
20	0x3f85cc6f	1.0453013
21	0x3f42394e	0.7586869
22	0x3fb3b395	1.4039179
23	0x3f3fff86	0.7499927
24	0x3f45aaf8	0.77214
25	0x3f72d6fe	0.948593
26	0x3f563dab	0.8368785
27	0x3f8d3219	1.1030914
28	0x3f5dd4ac	0.86652637
29	0x3f81c70d	1.013887
30	0x3f858844	1.043221
31	0x3f174eae	0.5910443

bias f4 [32]
0	0xbf2dab80	-0.67839813
1	0xbec5cda9	-0.3863347
2	0x3eaa9290	0.33314943
3	0xbf5a97dc	-0.8538797
4	0x3f36a3c6	0.7134365
5	0x3e9170bb	0.2840632
6	0xbee3e416	-0.44509953
7	0xbf4592b6	-0.7717699
8	0x3eac6f97	0.33678886
9	0xbf4dba12	-0.80362046
10	0xbebcef82	-0.3690148
11	0xbee15962	-0.44013506
12	0xbea0b003	-0.31384286
13	0xbf3c2b63	-0.735037
14	0xbd863791	-0.06553567
15	0x3d5765e5	0.05258741
16	0xbd4d4bc7	-0.050121095
17	0xbf3dfbba	-0.7421223
18	0xbecdf8e7	-0.4022896
19	0xbf7b9398	-0.98272085
20	0x3e089e2e	0.13341591
21	0xbf0a23fb	-0.5396115
22	0x3ee93540	0.4554844
23	0xbedb9431	-0.428865
24	0xbebcd791	-0.36883214
25	0xbcbbcee8	-0.022925809
26	0xbe6ffefa	-0.2343711
27	0xbf0a765b	-0.54086846
28	0xbf3ea3c5	-0.7446864
29	0x3e925bdd	0.2858571
30	0x3d8d8dd4	0.06911817
31	0xbf389b4b	-0.7211196

running_mean f4 [32]
0	0x40dbad64	6.864916
1	0xc09b77d3	-4.858377
2	0x414ea9a9	12.916421
3	0xbf9b9fa8	-1.2158098
4	0x4109323f	8.574767
5	0xc00d470b	-2.207461
6	0x407882c0	3.8829803
7	0x3ff83614	1.9391503
8	0xc15448e2	-13.267794
9	0x409d13bb	4.9086585
10	0x40cf8366	6.48479
11	0x40acb6be	5.3973074
12	0x4020147b	2.50125
13	0x40bb91b2	5.861535
14	0xc0b34344	-5.601961
15	0xc0b9405b	-5.789106
16	0xc11a67e3	-9.650363
17	0xc00778ef	-2.1167562
18	0xc016a8c2	-2.3540502
19	0x40313706	2.7689834
20	0x407e2648	3.9710865
21	0x40c4e047	6.1523776
22	0x4169566e	14.583601
23	0x40296301	2.6466677
24	0xc0fbe11f	-7.8712306
25	0xc0b1a0cf	-5.55088
26	0x412ded8d	10.870496
27	0x411b5a9a	9.7096195
28	0x40850948	4.157383
29	0x4159d2ba	13.613947
30	0x4137881b	11.470729
31	0x4086aa39	4.208279

running_var f4 [32]
0	0x4250c7f2	52.19526
1	0x418a48fb	17.285635
2	0x43529307	210.57433
3	0x429b8dfa	77.7773
4	0x4386bf58	269.49487
5	0x42e15e63	112.68435
6	0x41b1cefe	22.22607
7	0x41bf5acc	23.919334
8	0x42cb9b19	101.802925
9	0x42196101	38.34473
10	0x425dcad5	55.44808
11	0x42756921	61.352665
12	0x42b4ca57	90.395195
13	0x429f95e4	79.792755
14	0x427834e7	62.051662
15	0x41e3aae6	28.458447
16	0x43789a81	248.60353
17	0x41eb0bf5	29.380838
18	0x414fd9ee	12.9907055
19	0x4206b83e	33.679924
20	0x42da6d65	109.21366
21	0x4325f637	165.96178
22	0x438e8a7a	285.08185
23	0x41c263db	24.298758
24	0x4310419d	144.2563
25	0x417b5309	15.707772
26	0x432528cc	165.15936
27	0x431cba1d	156.727
28	0x42114e02	36.32618
29	0x4353f9b4	211.9754
30	0x432316f0	163.0896
31	0x420f4e02	35.82618

weight f4 [32, 32, 3, 3]
0	0xbd57126a	-0.052507795
1	0xbcf86501	-0.0303216
2	0xbb4dd42c	-0.0031406982
3	0x3d4710ab	0.04859988
4	0x3ce7403a	0.028228868
5	0x3dbf09f3	0.093280695
6	0x3bc7e623	0.0061004325
7	0x3a8a2fca	0.0010542807
8	0x3d97b112	0.0740682
9	0x3dec0f38	0.1152634
10	0x3ceb18a9	0.028698282
11	0x3dd5ec3e	0.1044545
12	0x3dd255a6	0.102702424
13	0x3dc16d13	0.094446324
14	0x3e0e168a	0.13875785
15	0x3d1cf1df	0.038316604
16	0x3cef59d8	0.029217646
17	0x3de34f0e	0.11099063
18	0xbe8684cd	-0.26273194
19	0xbe6c2f73	-0.23064975
20	0xbe63fe18	-0.22264898
21	0xbe7e96d6	-0.24862227
22	0xbe6ecf19	-0.23321189
23	0xbe5abe1d	-0.21361585
24	0xbe840633	-0.2578598
25	0xbe6430a5	-0.22284181
26	0xbe549101	-0.2075844
27	0xbdd27541	-0.10276271
28	0xbd4cb8df	-0.049980994
29	0xbd11828d	-0.035524894
30	0xbd5d9975	-0.054101426
31	0xbc53dc43	-0.012930932
32	0x3aa5020d	0.0012589112
33	0xbbb8aae5	-0.0056356066
34	0x3d29521d	0.041338075
35	0x3d6c9adb	0.05776487
36	0xbe663e30	-0.2248466
37	0xbe770275	-0.24122031
38	0xbe8140a8	-0.2524464
39	0xbe56f67a	-0.20992461
40	0xbe8d6c70	-0.27621794
41	0xbe4bd7b1	-0.19906498
42	0xbe7915ce	-0.24324724
43	0xbe768aea	-0.24076429
44	0xbe70f779	-0.23531903
45	0xbd6dda69	-0.05806962
46	0xbbb6ae02	-0.0055749426
47	0x3c0ef3c3	0.0087251095
48	0xbd577051	-0.052597348
49	0xbd832c03	-0.06404879
50	0x3d1528d4	0.03641589
51	0x3ca1d910	0.019756824
52	0x3b91ee3a	0.0044534476
53	0xbcadb546	-0.021204602
54	0xbe23dac6	-0.16001424
55	0xbd8cf498	-0.0688259
56	0x3cb69be0	0.022291124
57	0xbe12440c	-0.1428377
58	0xbd9478c9	-0.072496004
59	0x3bec9c10	0.0072207525
60	0xbd305393	-0.043048453
61	0x3b5640fa	0.0032692538
62	0x3d10a3db	0.035312515
63	0xbd83e90b	-0.06440934
64	0xbd8fcc70	-0.07021415
65	0xbd68d0d4	-0.05683978
66	0xbd4a4536	-0.04938241
67	0xbba37f40	-0.0049895346
68	0xbcd88e8c	-0.02643516
69	0xbd60c0b5	-0.05487128
70	0x3c6bca02	0.014391424
71	0x3d8a06cf	0.0673958
72	0x3e69ec6b	0.22844093
73	0x3e7b2f35	0.24529727
74	0x3e571f60	0.21008062
75	0x3e88b8b4	0.26703417
76	0x3e7a785e	0.24459979
77	0x3e9d8a34	0.30769503
78	0x3e9fa3bf	0.31179616
79	0x3e90121e	0.28138822
80	0x3e4c993a	0.19980326
81	0xbd9ea06c	-0.07745442
82	0x3c2a9013	0.0104103265
83	0xbcb52366	-0.022111606
84	0xbd94be0d	-0.07262812
85	0xbc08a959	-0.008341157
86	0xbcbb5807	-0.022869123
87	0xbc976d10	-0.018484622
88	0xbd02107d	-0.031754006
89	0xbcdf8805	-0.027286539
90	0xbd8c07ad	-0.068374015
91	0xbd96021e	-0.073246226
92	0x3d4373c0	0.04771781
93	0xbc73679c	-0.014856245
94	0x3d41745a	0.047230102
95	0x3dd77878	0.105210245
96	0x3cc7d142	0.024391774
97	0x3d3d2215	0.04617508
98	0x3d98883d	0.074478604
99	0xbcefd1b8	-0.029274806
100	0xbd61aa15	-0.055093843
101	0x3cfddddd	0.030989582
102	0xbd00e135	-0.031464774
103	0xbcc22466	-0.023698997
104	0x3c1011dc	0.0087933205
105	0xbc2f4388	-0.010697253
106	0x3c03bb23	0.008040222
107	0xbc8c6ebd	-0.017142648
108	0xbc81579c	-0.015788846
109	0xbd9de60c	-0.077098936
110	0xbcf81cd7	-0.03028719
111	0xbd7ffe6f	-0.062498506
112	0xbcbc5ebf	-0.022994397
113	0xbd198aab	-0.03748576
114	0xbbd0b2d0	-0.0063689724
115	0xbde7b7bb	-0.11314341
116	0xbd71fbe5	-0.059078116
117	0xbdcd89e4	-0.10036066
118	0xbd7a3d23	-0.06109346
119	0xba9fca43	-0.0012191016
120	0x3cb53960	0.022122085
121	0xbd1b1c40	-0.03786874
122	0x3cdf5559	0.027262377
123	0xbd43b202	-0.047777183
124	0xbd69368b	-0.05693678
125	0xbd1eb628	-0.038747936
126	0xbd8a6f3d	-0.06759498
127	0xbbf17965	-0.0073692077
128	0x3ccd6dce	0.025076773
129	0xbcac1030	-0.021003813
130	0x3adf15d7	0.0017020059
131	0x3c9348c6	0.017979037
132	0xbd1ca2a3	-0.03824104
133	0xbcf256c8	-0.029582396
134	0xbd81ec82	-0.063439384
135	0x3e55a51e	0.20863768
136	0x3e5a78fa	0.21335211
137	0x3e2c1b9b	0.16807406
138	0x3e576147	0.21033202
139	0x3e2a7c0a	0.1664888
140	0x3e6dbecd	0.23217316
141	0x3dcde8c7	0.100541644
142	0x3e3fc1c9	0.18726267
143	0x3e4cb878	0.19992244
144	0x3d1d6100	0.038422585
145	0x3c3ae687	0.011407501
146	0xbd0ecbe2	-0.034862407
147	0xbcea2bfd	-0.028585428
148	0xbd9b0818	-0.07569903
149	0x3d7bb5c3	0.06145264
150	0xbd4c3f81	-0.04986525
151	0xbce1ed2a	-0.027578909
152	0x3ba1c262	0.0049365023
153	0x3d876740	0.0661149
154	0x3c183ec4	0.009292308
155	0x3ded4414	0.115852505
156	0x3e0394d9	0.1284975
157	0x3dac41c6	0.08410983
158	0x3e272fca	0.16326824
159	0x3d89e0b1	0.067323096
160	0x3d1b0d06	0.037854217
161	0x3e224da2	0.15849927
162	0xbd03e968	-0.032205015
163	0xbda2c4e3	-0.079477094
164	0xbd74bce0	-0.059750438
165	0xbcf61c0a	-0.030042667
166	0xbddcef41	-0.107878216
167	0xbdbf23b1	-0.093329795
168	0xbda8d054	-0.082428604
169	0xbca1f089	-0.019768016
170	0xbdf53cb0	-0.11974466
171	0x3d96bab0	0.073598266
172	0x3cca86e1	0.024722518
173	0x3dc376ad	0.0954412
174	0x3d7125f6	0.058874093
175	0x3d3405f6	0.043950997
176	0x3dbc1b06	0.09184842
177	0x3dbe800f	0.09301769
178	0x3d3d6330	0.04623717
179	0x3e12caad	0.14335127
180	0x3e1b5fae	0.15173218
181	0x3e066e5a	0.13128033
182	0x3e337f36	0.17528996
183	0x3de8e265	0.11371306
184	0x3e053eb6	0.13012204
185	0x3e294d06	0.16533288
186	0x3d491e10	0.049100935
187	0x3e051169	0.12994923
188	0x3e0b29ea	0.13590208
189	0xbd6e50f9	-0.05818269
190	0xbdf1b7ad	-0.118026115
191	0xbc39415f	-0.01130709
192	0xbc5cb267	-0.013470269
193	0xbd8d2683	-0.06892111
194	0x3c0729ec	0.008249741
195	0x3cb7f7bd	0.022456998
196	0x3cb776d1	0.022395523
197	0x3e00111f	0.12506531
198	0xbd94a104	-0.07257274
199	0xbd6846fe	-0.05670833
200	0xbb8abcc2	-0.0042339275
201	0x3b827ebe	0.003982394
202	0x3c693b30	0.014235303
203	0xbc6b1f72	-0.014350759
204	0xbddd3258	-0.10800618
205	0xbd20c278	-0.03924796
206	0xbd643d0b	-0.055722278
207	0xbddc90fc	-0.10769841
208	0xbd91d77e	-0.0712118
209	0x3d164734	0.036689
210	0xbda9e39c	-0.08295366
211	0x3bb80927	0.0056163254
212	0xbc903a6c	-0.017605983
213	0xbdc854db	-0.0978181
214	0x3d126b23	0.035746705
215	0x3dacf189	0.08444507
216	0x3d8b613c	0.06805655
217	0x3d42f272	0.047594495
218	0x3ca4a2a4	0.020097084
219	0x3da1c112	0.07898153
220	0x3ddcfae1	0.10790039
221	0x3dc8b7a5	0.098006524
222	0x3ddfe8c2	0.10933067
223	0x3e089454	0.13337833
224	0x3d144b64	0.03620471
225	0x3e06e1b4	0.13172036
226	0x3e44fb9b	0.19236605
227	0x3d9a61d2	0.07538189
228	0x3e37a22d	0.17932959
229	0x3df08770	0.11744583
230	0x3e1d2fb3	0.15350227
231	0x3e805a46	0.25068873
232	0x3e5a79d3	0.21335535
233	0x3e6e45ae	0.23268768
234	0xbd3d5bd3	-0.04623015
235	0x3d4b016a	0.049561895
236	0xbb9c04d3	-0.0047613173
237	0x3d555c41	0.052089933
238	0x39c1d363	0.00036969324
239	0x3d24d4ea	0.040242113
240	0xbb371bf1	-0.0027940238
241	0x3de5f322	0.112280145
242	0x3db1473d	0.08656166
243	0xbde4a96e	-0.11165129
244	0xbcd60300	-0.026124477
245	0xbb39c480	-0.0028345883
246	0xbc728445	-0.014802043
247	0xbc3146fa	-0.010820145
248	0x3bb5c412	0.005547055
249	0xbc8e0d00	-0.017340183
250	0x3bd0caac	0.0063718166
251	0x3d94e8e0	0.0727098
252	0xbe068e1b	-0.13140146
253	0xbe08c5f5	-0.13356765
254	0xbd9db32c	-0.0770019
255	0xbdee2292	-0.116276875

bias f4 [32]
0	0xbd1e196b	-0.03859846
1	0xbc8efa8f	-0.01745346
2	0xbde1687a	-0.110062554
3	0xbc286822	-0.010278733
4	0x3e3998cc	0.18124694
5	0xbbba720f	-0.0056898664
6	0xbdb96584	-0.09052566
7	0xbd9058a5	-0.070481576
8	0xbdb31db6	-0.08745901
9	0x3caa8f13	0.020820176
10	0xbc426178	-0.011864059
11	0x3dbfa777	0.09358113
12	0xbdab18f0	-0.08354366
13	0xbdf4b7c0	-0.1194911
14	0xbd9ebeee	-0.07751261
15	0xbc96e541	-0.018419864
16	0xbd259926	-0.040429257
17	0x3b14d628	0.0022710655
18	0xbdb7bc73	-0.08971491
19	0x3d462886	0.04837849
20	0x3cd2b0f0	0.025719136
21	0x3d200a14	0.03907211
22	0xbd848f21	-0.06472612
23	0x3b7e19cf	0.0038772707
24	0xbdb7582e	-0.08952366
25	0xbc90f707	-0.017695917
26	0x3bf78696	0.0075538857
27	0x3d29fe44	0.041502252
28	0xbc927e70	-0.017882556
29	0x3db595ef	0.08866488
30	0x3dcee351	0.10101951
31	0xbc2f8911	-0.0107138315

weight f4 [32]
0	0x3f402273	0.75052565
1	0x3f3998b9	0.7249866
2	0x3f481c3f	0.781681
3	0x3f4cdcf1	0.8002463
4	0x3e576f3d	0.21038528
5	0x3f98dc47	1.1942223
6	0x3f3ac0a0	0.7295017
7	0x3f6e0f69	0.92992264
8	0x3f82f200	1.0230103
9	0x3f1a1fe8	0.60204935
10	0x3f2b2f4d	0.6686905
11	0x3f42688a	0.75940764
12	0x3f6306ce	0.8868226
13	0x3f52211f	0.8208179
14	0x3f41d339	0.75712925
15	0x3f17934f	0.5920915
16	0x3f8164a4	1.0108838
17	0x3f471dd8	0.7777991
18	0x3f1b33db	0.60626
19	0x3f8118d3	1.0085701
20	0x3fbbaded	1.4662453
21	0x3f3c43b3	0.735408
22	0x3fbaee7b	1.4604028
23	0x3f50765a	0.8143059
24	0x3ecdde2d	0.4020857
25	0x3f64db87	0.8939747
26	0x3f3f982a	0.7484156
27	0x3f75691b	0.95863503
28	0x3f556abc	0.8336599
29	0x3f70147c	0.93781257
30	0x3f5f4eaa	0.87229407
31	0x3f7182be	0.9434012

bias f4 [32]
0	0xbf198bbe	-0.59978855
1	0xbf15075c	-0.58214355
2	0x3e94250d	0.28934518
3	0xbf808686	-1.0041053
4	0x3f3606f6	0.7110437
5	0x3e9956c3	0.29949006
6	0x3d2aaeec	0.041670725
7	0xbe205c69	-0.15660252
8	0x3e9f0201	0.31056216
9	0xbf23ee1a	-0.6403519
10	0xbde57d7f	-0.11205577
11	0xbe72f850	-0.23727536
12	0xbe8ec912	-0.2788778
13	0xbf0eacc1	-0.5573235
14	0xbe52b2bb	-0.20575993
15	0xbda1e5bc	-0.079051465
16	0x3dcae04f	0.09906065
17	0xbf18ccd1	-0.59687525
18	0xbf398997	-0.7247557
19	0xbf7cdc8d	-0.98774034
20	0x3ddd313b	0.108004056
21	0xbec44048	-0.38330293
22	0x3f075cb8	0.5287585
23	0xbf15e8f1	-0.58558565
24	0xbf1269b5	-0.57192546
25	0xbd96a3cc	-0.073554605
26	0xbe7b9c83	-0.24571423
27	0xbdb2995f	-0.087206595
28	0xbf4d70f5	-0.80250484
29	0x3ed7b6d8	0.42131686
30	0x3d9c7c64	0.07640913
31	0xbf21f74d	-0.63267976

running_mean f4 [32]
0	0xc09c4e95	-4.8845925
1	0xc07e7c4f	-3.9763372
2	0xc18020c2	-16.015995
3	0x4105c710	8.361099
4	0x41241a6f	10.2564535
5	0x40e6eee0	7.2166595
6	0xc0ed64c8	-7.4185524
7	0xc0d1f14f	-6.5607066
8	0xc185c3d8	-16.720627
9	0x40e8df00	7.2772217
10	0xbf44f161	-0.76930815
11	0x4121e054	10.117268
12	0x4126e04e	10.429762
13	0xc0de93aa	-6.9555254
14	0x410be020	8.742218
15	0xc02ccc5a	-2.6999726
16	0xc1080ebe	-8.503599
17	0x40673b3c	3.6129904
18	0x4051bd76	3.2771888
19	0x40a88390	5.26606
20	0x418f0ea3	17.882147
21	0x41419872	12.099718
22	0x4186c9ef	16.8486
23	0xc0de52c4	-6.947603
24	0xc05b74ef	-3.429012
25	0xc10e39fc	-8.889156
26	0xc095f583	-4.6862197
27	0x4101bbbd	8.108335
28	0x40a3c5b7	5.117885
29	0x4094cd41	4.6500554
30	0x4150b708	13.044685
31	0x40d979f2	6.796136

running_var f4 [32]
0	0x434701c8	199.00696
1	0x42c3d0f7	97.908134
2	0x441a19fa	616.4059
3	0x42f9c10b	124.87704
4	0x43ce17b8	412.1853
5	0x44614186	901.0238
6	0x4345e8c4	197.90924
7	0x43082e05	136.17976
8	0x434d0870	205.03296
9	0x42ee7bae	119.24156
10	0x42412732	48.288277
11	0x436b0c0a	235.04703
12	0x438afc6b	277.97202
13	0x435479f3	212.47636
14	0x43c715cf	398.17038
15	0x421fc452	39.94172
16	0x4383032b	262.02475
17	0x42baad59	93.33857
18	0x425ab586	54.67727
19	0x42f6c237	123.379326
20	0x444ba737	814.61273
21	0x4392de41	293.73636
22	0x4448ad8b	802.7116
23	0x43228ff9	162.5624
24	0x4309ff1d	137.99654
25	0x42fb44e6	125.63457
26	0x43886435	272.78287
27	0x43f0c320	481.5244
28	0x42b69d0e	91.30675
29	0x431ddc0f	157.8596
30	0x438b21b6	278.26337
31	0x42df657f	111.698235

weight f4 [32, 32, 3, 3]
0	0xba8b2944	-0.0010617157
1	0x3d1fabb7	0.03898212
2	0x3d979b66	0.07402687
3	0x3ca81804	0.020519264
4	0x3c8cdf2e	0.017196264
5	0x3cd72cd5	0.026266495
6	0x3c1f4530	0.009721085
7	0x3d7019ee	0.05861848
8	0xbaeb4ae6	-0.0017951399
9	0x3dfac1ca	0.122439936
10	0x3d97a11a	0.074037746
11	0x3de07e0f	0.10961544
12	0x3e3710e2	0.17877534
13	0x3ded2d9f	0.11580967
14	0x3e06f253	0.13178377
15	0x3d645c3f	0.055752035
16	0x3dec9fba	0.11553903
17	0x3da0b3f0	0.0784682
18	0xbe21dd70	-0.15807128
19	0xbe6b5960	-0.22983313
20	0xbe27b1bf	-0.16376399
21	0xbe789f70	-0.2427957
22	0xbe23b126	-0.15985546
23	0xbe2f3887	-0.17111407
24	0xbe34de43	-0.17662911
25	0xbe752e26	-0.23943385
26	0xbe89e31c	-0.26931083
27	0x3e167aed	0.1469533
28	0x3dbe8411	0.093025334
29	0x3d884235	0.06653253
30	0x3e1f3eee	0.1555135
31	0x3de56eb8	0.112027586
32	0x3e146b2c	0.14494008
33	0x3e0d241d	0.13783307
34	0x3e03ff91	0.1289046
35	0x3dc2033d	0.09473274
36	0xbe165db5	-0.14684184
37	0xbdead280	-0.11465931
38	0xbe0a6ca5	-0.13518007
39	0xbdbd42f8	-0.09241289
40	0xbe4b8435	-0.19874652
41	0xbe439ccd	-0.19102784
42	0xbde60f58	-0.11233395
43	0xbe1e5f60	-0.1546607
44	0xbe4a3dfe	-0.1975021
45	0xbdaee4b3	-0.08539715
46	0xbdde41ce	-0.10852395
47	0xbdcc663a	-0.09980436
48	0xbd8b6235	-0.06805841
49	0xbe0e7d23	-0.13914923
50	0xbe252b8a	-0.1612989
51	0xbcd9fa4f	-0.026608614
52	0xbd96ba9e	-0.07359813
53	0xbda936b7	-0.08262389
54	0xbb8c1d31	-0.004275941
55	0x3ba94a2d	0.005166313
56	0xbca835d3	-0.020533478
57	0x3c35c1d5	0.011093576
58	0xbd6913f7	-0.056903806
59	0xbddc83cf	-0.10767328
60	0xbc0efbc5	-0.008727019
61	0xbb2ce751	-0.0026382993
62	0xbe04914c	-0.12946051
63	0xbc2852c6	-0.010273641
64	0x3a11f708	0.00055681216
65	0x3c7b968f	0.01535572
66	0xbcfed6bd	-0.031108255
67	0x3d7af336	0.0612671
68	0x3d506e3c	0.050886378
69	0x3d3bdf15	0.045867044
70	0x3ac0f584	0.0014721607
71	0xbc678603	-0.014131072
72	0x3dd93f52	0.106077805
73	0x3d7d13b9	0.061786387
74	0x3a278f7b	0.00063919247
75	0x3ddfaca2	0.10921599
76	0x3ddf36b0	0.10899103
77	0x3dd89770	0.105757594
78	0x3d18c0ad	0.037293125
79	0x3dc0bed2	0.09411396
80	0x3db3cf73	0.08779802
81	0x3cab321b	0.020897916
82	0x3dcccded	0.10000215
83	0x3dcd491b	0.100237094
84	0x3d2116d7	0.039328422
85	0x3de52cf2	0.11190213
86	0x3e0df383	0.13862424
87	0x3ded03f9	0.11573023
88	0x3de9b4dd	0.1141145
89	0x3df7ad53	0.12093606
90	0x3e18ad33	0.1490982
91	0x3e0cffd6	0.13769469
92	0x3e033f16	0.12817034
93	0x3e00abef	0.12565587
94	0x3dc30332	0.09522094
95	0x3e3d5012	0.18487576
96	0x3dea9796	0.11454694
97	0x3def1acc	0.11675033
98	0x3df65f20	0.120298624
99	0xbdcb7497	-0.09934347
100	0xbd8ad87c	-0.06779572
101	0xbdf56a6b	-0.11983188
102	0xbd1dc877	-0.038521256
103	0xbd424589	-0.047429595
104	0xbcad5cb8	-0.021162376
105	0xbd1bd1b1	-0.038041774
106	0xbd940119	-0.07226772
107	0xbd275018	-0.040847868
108	0xbc0748f2	-0.008257138
109	0x3d589a68	0.05288163
110	0x3d2ae170	0.0417189
111	0x3d23e8c3	0.0400169
112	0x3ddbcfb5	0.10732976
113	0x3ddb4703	0.10706904
114	0xbc7d1cb9	-0.015448743
115	0x3de2d444	0.11075643
116	0x3d74669d	0.059668172
117	0x3d573b0c	0.052546546
118	0x3d7f7137	0.06236383
119	0x3b0e886e	0.00217488
120	0x3dde1ed9	0.108457275
121	0xbbb6a807	-0.0055742296
122	0x3dcca317	0.099920444
123	0x3e0d7547	0.13814269
124	0x3da9b3c2	0.08286239
125	0x3d3fd728	0.04683605
126	0xbd8c405d	-0.06848214
127	0x3cc77cb8	0.024351463
128	0xbd442cc2	-0.047894247
129	0xbd3edce6	-0.046597384
130	0xbd54d0d3	-0.051956963
131	0xbba3beae	-0.004997096
132	0x3d4b59ce	0.04964619
133	0x3d2986a7	0.04138818
134	0x3d0cf529	0.03441349
135	0x3dccc91d	0.09999297
136	0x3d85e6ab	0.06538137
137	0x3ddd436b	0.108038746
138	0x3d928c34	0.07155648
139	0x3d707e99	0.058714483
140	0x3da414a3	0.08011749
141	0x3d57f73e	0.052726023
142	0x3e094a29	0.13407196
143	0x3b3aefca	0.0028524273
144	0x3c3b184c	0.011419367
145	0x3d9b93aa	0.07596524
146	0x3cb400ce	0.02197304
147	0x3da80659	0.08204336
148	0x3bc09e9e	0.0058782836
149	0x3cff2ebd	0.031150216
150	0x3cf2133f	0.029550193
151	0x3c5e59cf	0.013571217
152	0x3dbfdc80	0.09368229
153	0x3e124020	0.14282274
154	0x3e1c19bc	0.15244192
155	0x3e5a76de	0.21334407
156	0x3e6406e5	0.22268255
157	0x3e52a4b0	0.20570636
158	0x3e0c5af0	0.13706565
159	0x3e5f79cc	0.21823806
160	0x3e33228a	0.17493644
161	0x3e759aa9	0.2398478
162	0x3e348e90	0.17632508
163	0x3e15dc39	0.1463479
164	0x3e22cf80	0.15899467
165	0x3e027837	0.12741171
166	0x3e3dee07	0.18547831
167	0x3e48d53d	0.19612594
168	0x3e270849	0.16311754
169	0x3e0fc8bb	0.14041416
170	0x3de6936c	0.11258587
171	0x3e29e18c	0.16589946
172	0x3e3fbff0	0.18725562
173	0x3e09ecef	0.13469289
174	0x3e557a98	0.20847547
175	0x3e266c9a	0.16252366
176	0x3e09dda9	0.13463463
177	0x3e54cc59	0.20781077
178	0x3e3a7446	0.18208417
179	0x3deb3dd6	0.11486404
180	0xbd4e55a0	-0.050374627
181	0x3c7a4859	0.015276038
182	0x3ceaada6	0.028647255
183	0x39f11a5f	0.0004598675
184	0x3c45d539	0.012074762
185	0xbd4932a9	-0.04912058
186	0xbcab26e0	-0.02089256
187	0xbcac90a4	-0.021065064
188	0xbccc18f6	-0.024914246
189	0x3ddc3e7d	0.10754106
190	0x3d403818	0.046928495
191	0x3d535f51	0.051604573
192	0x3c95737b	0.018243542
193	0x3dab4387	0.08362489
194	0x3d527bd2	0.051387616
195	0x3da58203	0.080814384
196	0x3df0ae27	0.11751967
197	0x3dc71cb4	0.097222716
198	0xbe067c53	-0.13133363
199	0xbe32cd46	-0.17461118
200	0xbdc375f0	-0.09543979
201	0xbe08a8d6	-0.13345656
202	0xbdcf0ae8	-0.10109502
203	0xbe3c702f	-0.1840217
204	0xbe78876e	-0.24270412
205	0xbe72d850	-0.23715329
206	0xbe0f6925	-0.14004953
207	0x3c3ad38c	0.011402976
208	0x3c9a28cc	0.018818282
209	0xbbb20f15	-0.005433927
210	0x3d08f51e	0.033436887
211	0xbd33f89c	-0.043938264
212	0x3cb6c6f8	0.022311673
213	0x3da48d5a	0.08034773
214	0xbb94554b	-0.0045267693
215	0xbc8ea72d	-0.0174137
216	0x3dc4cd3b	0.09609457
217	0x3c478365	0.012177323
218	0x3bd966e5	0.0066345804
219	0x3d25fa7c	0.040522084
220	0xbd09b080	-0.03361559
221	0xbca241de	-0.019806799
222	0x3be889a8	0.007096488
223	0xbccdade7	-0.025107337
224	0x3c122a9c	0.008921292
225	0x3e004c6d	0.12529154
226	0x3dd4a4dc	0.10383007
227	0x3dd6a0d6	0.10479896
228	0x3d8ee166	0.06976585
229	0x3e13b64f	0.14425014
230	0x3db96e33	0.09054222
231	0x3dd7c292	0.10535158
232	0x3dbfa3d4	0.093574196
233	0x3ddebb7d	0.10875604
234	0xbbf301f9	-0.0074160066
235	0xbd656be5	-0.0560111
236	0x3c62de11	0.01384689
237	0x3dbb5a8c	0.0914813
238	0x3cc811a7	0.02442248
239	0x3ca81c1e	0.02052122
240	0x3d06c06f	0.032898363
241	0x3d181723	0.03713144
242	0x3d8abc67	0.06774216
243	0xbcf6a220	-0.030106604
244	0x3cc95a98	0.024579331
245	0x3c594960	0.013262123
246	0xbcf5a789	-0.029987114
247	0xbd8fe585	-0.07026199
248	0xbc3484ac	-0.01101796
249	0x3b513609	0.0031923077
250	0xbd402b84	-0.0469165
251	0x3d20e40b	0.03927998
252	0x3d13ce0c	0.036085173
253	0x3dac6e32	0.084194556
254	0x3dc104cd	0.09424744
255	0x3d1182e1	0.035525206
