networks/policy_network.pth (torch, 511403 bytes, 79 tensors)

weight f4 [32, 20, 3, 3]
000000 be 10 91 bd 4c ef 23 3d 32 88 86 bb 0f e3 7a bd
       -0.070832714 0.040023133 -0.004105591 -0.061251696
000010 20 74 d6 3c 8c be 0d 3c d2 c6 56 bc 9e 7f b8 3c
       0.02617842 0.008651387 -0.013108926 0.02252179
000020 6a 32 4c 3d 9e ab 06 3d 5e 78 85 bc bf 55 4f bd
       0.049852766 0.03287851 -0.016292747 -0.050618883
000030 a5 37 1f 3d f8 f9 86 3d b2 94 1e bb fd 5d 58 bd
       0.038871426 0.065906465 -0.0024197516 -0.05282401
000040 4e 48 4c bd da 78 77 ba 80 a4 20 bd b5 29 ce 3d
       -0.049873643 -0.00094403105 -0.03921938 0.10066549
000050 0f 7d 3d 3a 61 e2 dc 3c 2f 58 b6 3d 8e df e3 3c
       0.0007228413 0.026963415 0.089035384 0.02781656
000060 1d 36 a9 3d 5d 2f ce 3d 8f 90 9c 3b ab 8a 03 3c
       0.082622744 0.100676276 0.004777975 0.0080286665
000070 19 57 66 3d 28 16 67 bb 95 c7 88 3d 86 7c 12 bc
       0.056235407 -0.003526101 0.06678692 -0.0089408215
000080 d8 f1 55 bb 3c 32 4a 3d 91 cf 33 3d 6a 52 0b bd
       -0.003264537 0.049364313 0.043899123 -0.034014143
000090 ff d0 a2 3d 69 7c a0 bc e2 6b 59 bc 3a 9b 42 bd
       0.07950019 -0.019590573 -0.01327035 -0.047511317
0000a0 fd af 94 3c bc 24 62 bc cb 71 9f 3d 5d ee 0a bc
       0.018150324 -0.0138027035 0.07785376 -0.008479682
0000b0 1a 96 30 3d d8 8c e1 bc b8 fd 82 3c 1c 38 ae 3d
       0.043111898 -0.02753298 0.015990123 0.08506796
0000c0 15 b7 dd 3c a5 65 2c 3d c4 c0 d2 3c 34 e7 85 bb
       0.02706484 0.042089123 0.025726683 -0.0040863995
0000d0 f5 88 9c bd 89 ee 59 bd 90 50 32 3d 24 d1 7c bb
       -0.0764331 -0.053206 0.04353386 -0.0038576806
0000e0 f9 63 b8 3d be c2 77 bb e7 2a b2 3c 23 b0 fd 39
       0.09003443 -0.0037805284 0.021748973 0.00048387152
0000f0 4f 00 a8 3c b7 42 76 bc 91 23 b8 3d f3 07 13 3d
       0.02050796 -0.0150305545 0.08991159 0.035896253
000100 ae ae 8e bc 17 54 47 bd 94 c6 f6 3c 93 f7 7f 3d
       -0.017417278 -0.04866418 0.030123986 0.062491965
000110 30 7b 49 3b 50 43 16 3d 0f 9f 34 3d 99 eb 80 3d
       0.0030743591 0.036685288 0.044097003 0.06294937
000120 9b 11 e7 bc f5 11 8d 3d bc 85 3c 3c 1d 19 97 3d
       -0.028206637 0.06888191 0.011506494 0.07377837
000130 32 31 87 3d 39 b6 7c 3d a5 d4 55 bd a4 10 82 3d
       0.0660118 0.06169722 -0.052204747 0.0635083
000140 97 f5 42 bd be 6c d9 3c 89 1e ab 3d 1f 75 0a bd
       -0.047597494 0.02654111 0.083554335 -0.0338031
000150 1f 16 02 bc 43 aa b7 3d bc d4 61 3d a3 4b 51 3d
       -0.007939844 0.08968022 0.05513452 0.051097523
000160 eb f5 84 bc 29 20 44 bd d2 07 b1 ba 70 5e 56 3c
       -0.016230544 -0.047882233 -0.0013506359 0.013084039
000170 97 d8 b0 bc fd ff 88 3d ee 5e 19 3b 5f 9c c2 3a
       -0.021587653 0.06689451 0.002340253 0.0014847628
000180 e3 55 65 3d 7d 50 85 3d a3 6b 61 bc 92 79 41 3d
       0.05599011 0.065094925 -0.013758573 0.04723508
000190 8d 8c 51 3d e8 bc 37 bc d4 79 0e 3d ab f0 f1 bc
       0.05115943 -0.011214472 0.034784153 -0.029533705
0001a0 74 34 6a bb 06 e2 94 3d 92 3e 80 3d 14 e2 a6 3a
       -0.003573683 0.07269673 0.06261934 0.0012732171
0001b0 11 ee d0 3c 6f c0 09 bb 2e 14 f6 3b 1c 9b 6f 3c
       0.025504144 -0.002101924 0.00750973 0.014624383
0001c0 0d d1 16 bd 09 4c 8d bd 48 51 ee 3c 54 a2 3b bc
       -0.03682046 -0.06899268 0.029091492 -0.011452276
0001d0 34 01 4f 3d 96 7c d6 3c cf a5 21 3d 22 d2 77 3d
       0.050538257 0.026182454 0.039464768 0.060503133
0001e0 19 68 70 bc 81 d8 91 bd f9 ab 8c 3c 68 db 20 3c
       -0.014673256 -0.07121373 0.017171847 0.0098179355
0001f0 62 51 d8 bc a4 65 b3 bb 52 ef 90 3d 87 4e 79 bc
       -0.026405994 -0.005474763 0.07076897 -0.015216476
000200 7d c3 20 3c 53 55 2f 3c bf 17 41 bc 4b c8 80 bd
       0.009812233 0.010701495 -0.011785447 -0.06288203
000210 d6 5d 5d bd 00 34 83 3d f9 e9 ff 3c a9 ef 87 bd
       -0.054044567 0.064064026 0.031239497 -0.066375084
000220 8b 7e 76 3c 58 05 98 bd 1c f9 4f 3d 21 1b 72 bd
       0.015044819 -0.07422894 0.05077468 -0.059107903
000230 20 2a 48 bc 2d 62 07 3d 33 66 62 3d 6e d4 9f 3c
       -0.012217075 0.033052612 0.055273246 0.019510474
000240 5a db 8f bc fc 0c 09 bd 75 04 97 bd 60 e3 b7 3c
       -0.01756065 -0.03345965 -0.07373897 0.022447288
000250 a9 8f 61 3d 3e b1 8b bd f7 30 97 3d 09 04 5b bd
       0.055068646 -0.06820916 0.07382386 -0.053470645
000260 43 a7 f0 3c 93 a9 a3 bd a4 07 09 bd a5 29 c1 bd
       0.029376632 -0.07991328 -0.033454552 -0.09431771
000270 31 ab 24 bd 8c 65 1a bc 74 03 31 bc db fa ec 3c
       -0.040202323 -0.009423625 -0.010804046 0.028928211
000280 33 d1 6e 3c 73 5a 92 bd 92 01 06 3d 2b 5f 22 3d
       0.014576244 -0.07146158 0.03271634 0.03964154
000290 3f 3f 72 3d 71 d5 b4 3d 9c c1 27 bd 4b 95 f0 bc
       0.059142347 0.08829773 -0.040956125 -0.029368063
0002a0 a3 92 83 3d 2a e7 04 bc db 42 b2 3c c0 5a 75 3c
       0.06424453 -0.008111754 0.021760395 0.01497525
0002b0 d1 84 80 ba 2e 12 99 3d 3f 2c 35 bd a5 a3 b0 3d
       -0.0009805207 0.074741706 -0.04423165 0.08624963
0002c0 44 47 cd bc 0f 70 23 3d 1c f1 a7 bc dc 8e 06 3d
       -0.025058396 0.03990179 -0.020500712 0.032851085
0002d0 06 41 ce 3d c9 b6 2a bd 2f 96 94 bb 62 10 06 3c
       0.10070996 -0.041678224 -0.004534505 0.008182617
0002e0 ff 86 e2 3c f4 d7 52 bd 6e f2 d4 3d e2 84 90 3d
       0.027652262 -0.05147548 0.10397802 0.070565954
0002f0 87 6f 14 3d 92 67 26 3d aa 3b bf 3d ce bf 70 3d
       0.036239173 0.040626116 0.09337552 0.05877667
000300 99 85 07 3d 54 5c 3c bb 98 57 14 3d 97 18 d6 bc
       0.033086393 -0.0028741555 0.03621635 -0.026134772
000310 01 cf a0 bc e0 f5 bf 3d 11 2b 82 bd 30 6d 5e bd
       -0.019629957 0.09373069 -0.063558705 -0.054303348
000320 c1 69 3c 3c ac 6a 1c 3d 25 a0 2a 3d 1c 3c 22 bd
       0.011499823 0.038187668 0.041656632 -0.039608106
000330 c1 d1 4a bd a4 e5 7e bd 02 87 d1 3c d0 b9 93 3c
       -0.049516443 -0.06223072 0.025577072 0.018032938
000340 85 8f 82 3d 6d 55 e9 ba 79 d4 94 3c f1 1c 1c 3d
       0.063750304 -0.0017801948 0.018167721 0.03811354
000350 f6 dd 38 3d bd ab 0a 3d b7 13 40 bc 78 67 dc bc
       0.045133553 0.03385519 -0.01172345 -0.026904806
000360 cf 44 35 3d a5 c3 86 bd 7b 50 43 3d c2 7e 14 bd
       0.044255074 -0.06580285 0.047684174 -0.0362537
000370 8a ad ee 3c eb bf 65 3c 30 05 bb bd 85 f8 80 bc
       0.029135484 0.014022808 -0.09131849 -0.015743503
000380 2c eb 93 3d db 89 80 bd 0d 21 76 bd 48 e1 14 bc
       0.0722259 -0.06276294 -0.060090113 -0.009086914
000390 23 71 6b bd 7b b4 73 3c b7 cb 98 3c d5 d2 33 bc
       -0.057480942 0.014874573 0.018651826 -0.010975559
0003a0 b4 8d 38 3d dc e1 3b bc 2f 08 b7 bd 1a 5a e6 3c
       0.045057014 -0.011467423 -0.08937108 0.028119136
0003b0 d3 b1 85 bc 49 fd f6 bc f4 20 30 bd cf e0 89 bd
       -0.016320145 -0.030150073 -0.043000177 -0.06732332
0003c0 f1 7d 74 bd 72 4f e1 bb 1a 8d 37 bd 78 a8 b0 bd
       -0.05969042 -0.0068759257 -0.0448123 -0.08625883
0003d0 91 c7 8b 3c 59 02 ee 3c f0 40 0b 3d 39 c4 45 bd
       0.017062934 0.029053854 0.033997476 -0.048282836
0003e0 9c 31 c4 bc f1 82 eb bc 4b 30 95 bd 65 45 3a bd
       -0.023949437 -0.028748961 -0.07284602 -0.045476336
0003f0 f7 58 1c 3d 73 49 9f 3c d3 67 2e 3d 3f b9 27 3d
       0.03817078 0.019444203 0.042579483 0.04094815

bias f4 [32]
000000 14 21 7e bd 60 4d 0f 3d 46 4d 3c bd dd d4 07 bd
       -0.062043265 0.0349859 -0.04597213 -0.033161987
000010 86 3d 65 3d dd ad 3b 3d 34 e4 9c 3d 72 e2 d4 bb
       0.055966876 0.045820106 0.07660714 -0.006496721
000020 a9 c5 89 3d bb c3 99 bd eb 43 e6 bc 6d 63 4f bc
       0.06727154 -0.07508036 -0.028108558 -0.012657982
000030 5a a5 23 bd 17 fd e5 bc 8e e3 a8 3d 6d b8 9c 3c
       -0.039952613 -0.028074784 0.082465276 0.01913091
000040 35 4a 2b bd 72 fb 51 bd 97 ce 7e 3b c4 64 38 bd
       -0.041818816 -0.051265188 0.0038880461 -0.045017973
000050 06 29 80 bd e8 aa ff bc 2c a6 b1 3d 8e 38 20 3d
       -0.062578246 -0.031209424 0.08674273 0.039116435
000060 aa ec 81 3d 9a 98 f8 bc e2 c8 84 ba 78 9f d7 3c
       0.06343968 -0.030346204 -0.0010130669 0.026321158
000070 96 64 97 bc 4c 55 09 bd e2 1d 5b 3d 22 8d 5b 3d
       -0.01848058 -0.03352861 0.053495295 0.05360139

weight f4 [32]
000000 48 db 82 3f 48 db 82 3f 88 a3 7c 3f 1c cd 83 3f
       1.0223169 1.0223169 0.9868703 1.029697
000010 be a8 80 3f 92 9a 81 3f be a8 80 3f 88 a3 7c 3f
       1.0051496 1.0125296 1.0051496 0.9868703
000020 d5 95 80 3f 48 db 82 3f 31 87 7e 3f 1e 22 7a 3f
       1.0045725 1.0223169 0.99425036 0.9770831
000030 31 87 7e 3f 89 d4 82 3f 48 db 82 3f 1e 22 7a 3f
       0.99425036 1.022111 1.0223169 0.9770831
000040 31 87 7e 3f 75 3e 78 3f 31 87 7e 3f 92 9a 81 3f
       0.99425036 0.969703 0.99425036 1.0125296
000050 48 db 82 3f 31 87 7e 3f f1 b5 7a 3f 1e 22 7a 3f
       1.0223169 0.99425036 0.9793387 0.9770831
000060 1c cd 83 3f 9c 62 81 3f 88 a3 7c 3f b6 ee 7d 3f
       1.029697 1.0108218 0.9868703 0.9919237
000070 31 87 7e 3f be a8 80 3f 48 db 82 3f be a8 80 3f
       0.99425036 1.0051496 1.0223169 1.0051496

bias f4 [32]
000000 21 47 b9 3c 21 47 b9 3c eb c8 b3 bb 44 bc f5 3c
       0.022616925 0.022616925 -0.005486598 0.029996999
000010 83 92 b2 3b 17 56 9a bc 83 92 b2 3b 21 47 b9 bc
       0.0054495945 -0.018839879 0.0054495945 -0.022616925
000020 88 33 52 3c 7a c0 ad 3c 88 33 52 bc 44 bc f5 bc
       0.012829669 0.021209944 -0.012829669 -0.029996999
000030 65 3e b9 3c 21 47 b9 3c 21 47 b9 3c 21 47 b9 bc
       0.02261276 0.022616925 0.022616925 -0.022616925
000040 83 92 b2 bb 44 bc f5 bc 44 bc f5 bc 44 bc f5 3c
       -0.0054495945 -0.029996999 -0.029996999 0.029996999
000050 21 47 b9 3c 88 33 52 bc 44 bc f5 bc 21 47 b9 bc
       0.022616925 -0.012829669 -0.029996999 -0.022616925
000060 44 bc f5 3c e0 3a d6 3b 88 33 52 bc 58 84 a6 3c
       0.029996999 0.00653778 -0.012829669 0.020326778
000070 21 47 b9 bc 5b 2f f0 bc f4 b3 a4 bb 83 92 b2 3b
       -0.022616925 -0.029319456 -0.005026335 0.0054495945

running_mean f4 [32]
000000 43 f2 e9 3c 4c f8 7e 3e b7 d2 d2 be 6d fa ad 3d
       0.028557902 0.24899405 -0.41176388 0.084950306
000010 09 1f 12 3e 28 92 00 3e 15 00 a7 3e 10 a2 c1 bd
       0.14269651 0.12555754 0.3261725 -0.09454739
000020 74 5a 98 3e 93 53 8a be 36 d2 55 be 93 7f 7d bd
       0.2975651 -0.27016887 -0.2088097 -0.061889242
000030 d6 db c9 be 18 c2 7c be 78 1a a5 3e 06 32 40 be
       -0.39425534 -0.24683416 0.32246757 -0.18769082
000040 38 51 21 3e e9 7b 07 be ba 6e ad bd b0 fc d8 3d
       0.15753639 -0.13230862 -0.08468385 0.10595071
000050 a3 82 7f be ea af b9 be b1 8a b0 bc 4d 49 34 3e
       -0.24952178 -0.36267024 -0.021550508 0.17606087
000060 7c ae 0a 3d ae 9c c2 3d 43 fe 80 bd b2 49 c9 bd
       0.033857808 0.095025405 -0.062984966 -0.098285094
000070 d7 33 0b 3b ff da ab 3d 40 99 5b 3d 7f 03 ad 3e
       0.0021240616 0.083913796 0.053612947 0.3379173

running_var f4 [32]
000000 e7 61 45 3e b5 78 66 3e 6c 4c 57 3e b4 36 49 3e
       0.19275628 0.22506984 0.21025246 0.19649774
000010 df 8c 49 3e 4a d9 40 3e ad 96 46 3e ac b2 44 3e
       0.19682644 0.18832889 0.19393416 0.19208783
000020 75 40 4b 3e 0f ef 44 3e 84 8d 42 3e ef 91 49 3e
       0.19848807 0.19231819 0.18999296 0.19684575
000030 05 96 5d 3e 16 e0 77 3e 4e e2 48 3e 33 1c 52 3e
       0.21639259 0.24206576 0.19617578 0.2051857
000040 4e 1e 49 3e a7 07 52 3e 86 09 55 3e 3a 26 6b 3e
       0.19640467 0.20510732 0.20804414 0.22963801
000050 39 e7 41 3e a5 59 68 3e f6 aa 42 3e 20 13 51 3e
       0.1893586 0.22690447 0.19010529 0.20417452
000060 3d fa 4a 3e 99 4e 4a 3e 4e 7b 52 3e 1c f5 4a 3e
       0.19822021 0.19756545 0.2055485 0.19820064
000070 a8 1a 45 3e 87 8e 4e 3e 98 dd 6b 3e bd 65 76 3e
       0.1924845 0.20171557 0.2303375 0.24062248

weight f4 [32, 32, 3, 3]
000000 d5 fe 0f 3d c0 3b 8e 3d 88 90 ee 3c 72 11 87 bc
       0.035155136 0.0694499 0.029121652 -0.01648781
000010 ef ec 84 3d 55 3d 37 3d 68 76 73 bc bb a6 90 3b
       0.06490504 0.044736225 -0.014859773 0.004414407
000020 33 23 26 3c a9 7a a1 3d 86 0a 37 3c 8e a8 af 3d
       0.010140228 0.07884724 0.011171943 0.08577071
000030 69 ec 96 3b c2 89 8d bb 0e 88 92 3d 10 90 c4 bc
       0.004605819 -0.0043194005 0.071548566 -0.023994476
000040 a7 64 e9 3c c0 56 18 3d bd 15 97 3d ca af a6 3d
       0.028490378 0.037192106 0.07377193 0.08138998
000050 af 71 86 3c 98 76 70 bc df 26 d2 bc 36 a9 56 3d
       0.01641163 -0.014676712 -0.0256533 0.052407466
000060 69 96 af ba 50 71 30 3d b3 c8 d5 bc aa 28 63 3d
       -0.0013396266 0.043076813 -0.026096677 0.055458702
000070 24 45 ee 3c 9b fe 19 3d 7f 20 ad 3c 1b 06 3c bd
       0.029085703 0.037596326 0.02113366 -0.04590426
000080 75 b4 29 bd cf 81 26 bd 21 e8 90 3d 3c d0 e4 bb
       -0.041431863 -0.04065114 0.07075525 -0.0069828313
000090 cd f3 65 bd c9 97 bb 3c 0f 52 33 bc 0d 46 7a bd
       -0.05614071 0.022899525 -0.010944857 -0.061101962
0000a0 17 78 4e bd 63 c3 a2 3b b8 9b 20 ba 84 f0 9b bc
       -0.050407495 0.0049671396 -0.00061267195 -0.019035585
0000b0 fd 84 1a bd ea 2b 9f bc ea 2b 41 3d 9a 50 99 bc
       -0.037724484 -0.01943012 0.04716102 -0.018715192
0000c0 36 34 91 3d 1b 65 82 3d fd d6 e7 bc d3 16 6a 3c
       0.070900366 0.063669406 -0.028300757 0.014287668
0000d0 45 af 72 3c fa b1 46 3d c4 0e de bb 37 39 6e bc
       0.014812295 0.048509575 -0.0067766625 -0.014540008
0000e0 49 5e 8c 3c 9b 7e 38 bc 29 ca 71 3d bd 11 3a 3d
       0.017134802 -0.011260654 0.059030686 0.045427073
0000f0 a5 c4 14 bb f9 0e 9e bc 03 2f ad 3d bc 05 48 bd
       -0.0022700217 -0.019294249 0.084562324 -0.048833594
000100 15 8d c7 bb 87 09 0e 3d 00 2e 64 bc 1d 02 3c 3d
       -0.0060898163 0.034677055 -0.013926983 0.045900453
000110 b2 a8 f1 bc 6f 03 3d bc 06 c4 e1 bc 44 7f 0f 3d
       -0.029499386 -0.011536463 -0.027559292 0.03503348
000120 0c 0f 16 3d cd c1 c2 bc 79 25 68 3c d0 27 7f 3d
       0.036635444 -0.023774052 0.01416909 0.062293828
000130 93 5c d3 bc 6e 5f b3 3d 31 ec 5f 3d 48 2b ec 3c
       -0.025800979 0.08758436 0.05466861 0.028829232
000140 3a e7 a5 3c b5 0c a8 3d d7 ab 75 3d ad de e5 bc
       0.020251859 0.08205549 0.059978332 -0.028060282
000150 eb 12 ad 3d bc 8f 2d 3d 40 00 2f 3c c6 c4 6c 3d
       0.08450874 0.042373404 0.010681212 0.057804845
000160 94 4b 80 3c 77 20 93 3d db 00 0c 3d 01 6f 9c 3d
       0.015661038 0.071839266 0.034180503 0.0763836
000170 58 cb 88 bc 0e ab 30 3d 2d f7 b2 3d 23 99 a6 3c
       -0.016698524 0.04313188 0.08738551 0.020336693
000180 ec d7 7a 3d 55 b9 45 3d 4b 79 61 3d 3e 22 71 bd
       0.061241075 0.04827245 0.055047315 -0.058870547
000190 af e9 97 3c 47 c2 a6 bb ea 95 a3 bc 90 e4 f2 bc
       0.018544046 -0.0050890776 -0.019968946 -0.029650003
0001a0 78 6c fa bc 3f 86 12 bd b2 93 0a bc 37 8d 49 3c
       -0.0305693 -0.03577256 -0.008458065 0.012301735
0001b0 a5 9f ee 3c 8e 4b 26 3c f3 ad 89 bd 88 43 13 bd
       0.029128859 0.01014985 -0.06722631 -0.035953075
0001c0 9e d9 18 3d e0 e4 16 3c 3b 63 ac bb d5 22 50 bc
       0.03731691 0.0092098415 -0.0052608526 -0.012703617
0001d0 d1 c9 20 3d e5 29 16 3d 83 86 02 3d ce e4 5e bb
       0.039254967 0.036661047 0.03186656 -0.003401089
0001e0 d2 ee a4 3d c8 6a f1 bc 94 bd 41 3d 5d 0f e8 3c
       0.08053364 -0.029469863 0.047299936 0.028327638
0001f0 f8 24 1e 3d 90 eb 63 3d d7 4e b0 3c 8c 61 a7 bc
       0.038609475 0.05564457 0.021521969 -0.020432256
000200 8a 9c 16 3c ee a8 de 3b 77 6f 7b bd 31 89 45 bd
       0.009192595 0.0067950403 -0.061385598 -0.04822654
000210 3c e9 4c bd 37 0b 0a bd 54 8d 3c bc 5d c6 7f bb
       -0.050027117 -0.0337021 -0.011508305 -0.0039028146
000220 9c d8 60 ba f2 68 d3 bc f6 99 80 3d 13 20 2f 3d
       -0.0008577199 -0.025806878 0.06279366 0.042755198
000230 0e 60 dd bc c0 d4 a1 3c bd 14 06 bd f9 a6 2e 3d
       -0.027023342 0.019754767 -0.03273462 0.042639706
000240 e2 3d e6 bc 59 61 ca 3c 2d 75 5a bc 35 c0 37 bd
       -0.02810568 0.024704622 -0.013333601 -0.044861037
000250 e9 90 36 3d 8c 1f 0e bd 46 1d 55 3d a2 cf 57 bd
       0.04457179 -0.034698054 0.05202987 -0.05268825
000260 f5 1f 2b bd 47 68 9e 3c 5b 5d 82 bd 42 b2 c6 3b
       -0.041778523 0.019336833 -0.063654624 0.0060637305
000270 ac e2 cf bc b4 9c 06 bd ac 72 88 bd b7 88 52 bd
       -0.02537664 -0.032864287 -0.06662497 -0.051399913
000280 f5 0b 72 bd 08 6f 08 bc 9d 4e 7f 3d 68 6a c7 bb
       -0.059093434 -0.008327253 0.06233083 -0.0060856827
000290 3b 48 52 3d 0e 55 51 3c e6 7c a8 bd 02 93 6f 3d
       0.051338416 0.012776626 -0.082269475 0.058489807
0002a0 39 ff 49 bc 61 25 81 bd bd 61 dc 3c 68 93 c3 3c
       -0.012328916 -0.063059576 0.026902074 0.023874
0002b0 69 53 a4 3c 71 6b a0 3d a2 b0 35 3d d6 69 83 ba
       0.020059304 0.07832993 0.044357903 -0.0010026048
0002c0 9e 25 90 39 72 e0 0a bc 27 4e a7 bb ee 71 12 3c
       0.00027493847 -0.0084763635 -0.005105752 0.008938296
0002d0 0b e5 50 bc 34 81 36 3d 2c 50 bc 3b 57 d3 8f 3d
       -0.012749921 0.04455681 0.005746862 0.07022732
0002e0 37 db d9 3a 32 4a a8 bc cc 7e d6 3c 26 c0 50 3d
       0.0016621117 -0.020543192 0.026183508 0.050964497
0002f0 ba e7 6b 3c 0f 7f 5b bd 5d 9b 21 bc c3 e6 07 bc
       0.01439851 -0.05358797 -0.009863702 -0.008294764
000300 fa 96 27 3d 76 e6 8f 3c 28 3e d3 b8 ca 7a 82 bd
       0.040915467 0.017565947 -0.000100728415 -0.063710764
000310 be 7d 4e bd 66 bd 2c bd 9b 44 5e bd 0c 7c 9a 3c
       -0.050412886 -0.042172812 -0.054264646 0.018857978
000320 1a c6 c6 3b e2 0c f1 3c ae d5 86 bd 77 31 3b bd
       0.006066096 0.029425088 -0.06583725 -0.04570147
000330 43 f2 85 3c 0c 13 ad 3b c1 4e 4c bd c8 11 60 bc
       0.016350871 0.0052818116 -0.049879793 -0.013676114
000340 df 03 1e 3c a9 19 b1 bc 40 8d 1f bc 77 29 a6 3c
       0.009644478 -0.021618681 -0.0097382665 0.020283444
000350 17 57 86 3c 2b d7 7a 3c 60 cc 39 bc 83 9d a3 3c
       0.01639895 0.015310089 -0.011340231 0.019972568
000360 23 db ae 3c 1e 32 b1 bc f6 f4 23 bd 96 22 01 bd
       0.021344727 -0.021630343 -0.040028535 -0.031527124
000370 9a 23 e0 bc 4c 84 f3 ba 6b 61 72 bd ab a7 57 3d
       -0.027360726 -0.0018578856 -0.059174936 0.052650135
000380 b7 d7 87 3c c9 96 82 3d 33 1c c2 bc a9 e1 8d bc
       0.016582353 0.06376416 -0.023695087 -0.017319517
000390 98 f1 f6 3b 7d d9 0a bb 34 b4 8b 3c 7c a8 5a 3c
       0.0075361244 -0.0021186762 0.017053701 0.013345834
0003a0 66 10 fe 3c 01 43 d1 bc 8f 4a fd 3c 34 99 a9 3b
       0.031013679 -0.025544645 0.030919341 0.005175734
0003b0 85 19 ba bb d8 a8 38 3d 2d 77 b1 bc d5 25 61 3d
       -0.0056793117 0.045082897 -0.021663273 0.05496772
0003c0 1a 33 3a 3d 84 09 07 3c 07 46 dd b9 91 f6 08 bc
       0.04545889 0.008242015 -0.0004220458 -0.008359567
0003d0 5d db db bc 7f 88 98 3d 96 34 63 3a 5c 19 4a bc
       -0.026837999 0.074479096 0.00086671987 -0.012335148
0003e0 d8 42 9c bc bc ee 89 3d a0 b6 49 3d d9 43 a4 3d
       -0.019074842 0.06734988 0.04924643 0.080207534
0003f0 4b 73 83 3b ef 67 f8 3b 4b 16 6f 3c e9 1c ba bc
       0.0040115467 0.007580749 0.014592717 -0.022718864

bias f4 [32]
000000 ed cb 29 3d 8b 5c d3 39 50 cd 36 bc 2c 1e 36 bd
       0.041454244 0.00040314006 -0.011157349 -0.044462368
000010 e7 36 78 3c 19 bb 65 3d df 7f 17 bd fd 96 ff 3c
       0.0151498085 0.056086633 -0.03698718 0.031199927
000020 9c 6f fb 3c 98 1a 83 bc 36 9a 0d 3c 4b 7b a9 bb
       0.030692868 -0.016003892 0.008642724 -0.0051721684
000030 5b 85 13 bd 8c 33 f2 3c 7c dd 5a 3d 56 01 09 3d
       -0.03601585 0.029565595 0.05343388 0.03344854
000040 09 01 bc bc 4d 5e a6 bb a9 80 8b bd b7 a7 73 3c
       -0.022949712 -0.0050771595 -0.06811649 0.014871529
000050 d2 0c fc bc 18 e7 72 3d 61 4a 77 3c e8 8b 67 3c
       -0.030767832 0.05930242 0.015093417 0.014132477
000060 23 f4 f7 bb 54 59 be 3c a5 c6 3d bd 8c b3 86 3c
       -0.007566945 0.023235954 -0.04633202 0.016443036
000070 76 e3 26 3d e6 74 c8 bc aa e0 46 3c 23 06 86 bc
       0.040744267 -0.024469804 0.012138525 -0.016360348

weight f4 [32]
000000 1c cd 83 3f 31 87 7e 3f 48 db 82 3f 1e a4 83 3f
       1.029697 0.99425036 1.0223169 1.028446
000010 be a8 80 3f 1e 22 7a 3f 92 9a 81 3f 1e 22 7a 3f
       1.0051496 0.9770831 1.0125296 0.9770831
000020 87 a6 7c 3f be a8 80 3f 26 12 7e 3f 1c cd 83 3f
       0.986916 1.0051496 0.9924644 1.029697
000030 be a8 80 3f 48 db 82 3f 88 a3 7c 3f e6 41 81 3f
       1.0051496 1.0223169 0.9868703 1.0098236
000040 f8 a5 82 3f 92 9a 81 3f 92 9a 81 3f 31 87 7e 3f
       1.02069 1.0125296 1.0125296 0.99425036
000050 03 2a 7b 3f 88 a3 7c 3f 88 a3 7c 3f 48 db 82 3f
       0.9811098 0.9868703 0.9868703 1.0223169
000060 92 9a 81 3f 9e 89 7f 3f 88 a3 7c 3f 31 87 7e 3f
       1.0125296 0.9981936 0.9868703 0.99425036
000070 1e 22 7a 3f 48 db 82 3f 75 3e 78 3f 88 a3 7c 3f
       0.9770831 1.0223169 0.969703 0.9868703

bias f4 [32]
000000 21 47 b9 3c 83 92 b2 bb 44 bc f5 3c 21 47 b9 3c
       0.022616925 -0.0054495945 0.029996999 0.022616925
000010 82 1b 3d 3c 21 47 b9 bc a1 5c af 3b b0 5d 2a 3c
       0.011542203 -0.022616925 0.0053516184 0.010398313
000020 44 bc f5 3c 83 92 b2 3b a2 3f f5 bc 99 11 b1 ba
       0.029996999 0.0054495945 -0.029937569 -0.0013509273
000030 88 33 52 3c 21 47 b9 3c b2 f9 f5 3c e6 f6 a5 bc
       0.012829669 0.022616925 0.03002629 -0.020259332
000040 83 92 b2 bb 00 1a f3 bc 44 bc f5 bc 21 47 b9 bc
       -0.0054495945 -0.029675484 -0.029996999 -0.022616925
000050 e2 77 dd 3c 88 33 52 bc 0d 88 f5 bc f4 67 99 bc
       0.027034704 -0.012829669 -0.0299721 -0.018726327
000060 21 47 b9 3c f5 d2 90 bc 88 33 52 bc 88 33 52 3c
       0.022616925 -0.017678717 -0.012829669 0.012829669
000070 21 47 b9 bc 31 74 ef bc 88 33 52 bc 83 92 b2 3b
       -0.022616925 -0.029230209 -0.012829669 0.0054495945

running_mean f4 [32]
000000 d6 68 bf 3e 67 36 dc 3e 1c 11 31 bf cf f7 83 bd
       0.3738467 0.43010256 -0.6916673 -0.0644375
000010 2c 55 12 be ee 04 c3 3d 49 9f 39 3f 89 8e a4 3e
       -0.14290303 0.09522425 0.72508675 0.32139996
000020 86 d1 09 3e 6a 35 04 3f 19 30 2a be e5 7c 6f 3e
       0.13458833 0.51644003 -0.1661991 0.23387487
000030 fe 11 16 bf 0a a1 ae 3d 33 61 a6 bd 30 e0 3a 3e
       -0.58621204 0.085268095 -0.08124008 0.18249583
000040 30 2d 28 3d 62 12 6b be ff 80 53 be 47 4d 96 3d
       0.04105872 -0.22956231 -0.20654677 0.07338958
000050 14 06 77 be 18 0a 9e be d9 3e 3f 3e ce cd 64 3f
       -0.24123412 -0.30867076 0.18676318 0.89376533
000060 b0 e1 9a 3d b6 8b 17 be cc 1f ab bd 24 4d ed 3e
       0.07562578 -0.14799389 -0.08355674 0.46347916
000070 ad 1f ee bd ae d7 fe 3d 53 4a 26 bf 2b 93 0d 3e
       -0.116271354 0.124434814 -0.6495716 0.13825671

running_var f4 [32]
000000 ac 3d e3 3e 49 b8 50 3f 53 ca 79 3f 02 8c 6b 3f
       0.4438299 0.81531197 0.9757435 0.9201051
000010 61 31 14 3f cf ba 30 3f 17 04 65 3f 11 3e 00 3f
       0.57887846 0.6903505 0.89459366 0.50094706
000020 f9 72 22 3f 56 d2 7e 3f 67 8d 18 3f 18 81 8a 3f
       0.63456684 0.995397 0.5959076 1.0820646
000030 31 a2 05 3f df 1c b0 3e fa 06 49 3f b7 8c 99 3e
       0.5220061 0.34397027 0.7852627 0.2999017
000040 d7 04 55 3f 91 7d 7e 3f 17 10 3d 3f 59 71 11 3f
       0.8321051 0.9941035 0.73852676 0.5681358
000050 23 53 29 3f 8e 4c 0d 3f f7 f6 ad 3e 75 4e 9a 3f
       0.6614248 0.5519494 0.33977482 1.2055193
000060 ad ae bb 3e b7 41 3f 3f 03 10 41 3f 19 d1 22 3f
       0.36656705 0.7470965 0.75415057 0.6360031
000070 29 51 30 3f cf 66 fb 3e 8e d9 42 3f 9f eb 9c 3f
       0.6887384 0.49101874 0.7611321 1.2259406

weight f4 [32, 32, 3, 3]
000000 4e e7 96 3d 2d 2c df bc f5 f1 86 3b 94 07 ab 3d
       0.073683366 -0.027242744 0.004118199 0.08351055
000010 2a ac a3 bc ba 76 93 3d 22 62 a1 3d 1d c8 ce 3b
       -0.019979555 0.0720038 0.078800455 0.0063104765
000020 fd 4a 61 3d 2f d9 8d 3d 05 55 c3 bc c3 9e f1 bc
       0.055003155 0.0692619 -0.023844251 -0.029494649
000030 c1 08 40 bb c9 63 1c bb 07 72 b7 3b 53 87 b8 bc
       -0.0029302093 -0.0023863188 0.00559831 -0.022525465
000040 a2 1f 65 3d 2f 88 88 bc 13 08 dc 3c 5f c1 08 bd
       0.05593837 -0.0166665 0.026859319 -0.033387538
000050 1c ec 34 3d 11 6e 6f 3d 43 66 87 3c 90 6c f4 bc
       0.044170484 0.058454577 0.016528254 -0.029836923
000060 6f 72 29 bd e9 3f fc bc ed 4e 10 bd de ea 5e bd
       -0.041368898 -0.030792193 -0.03523152 -0.054423206
000070 51 10 ef bc 55 72 93 bc 35 6c 7a bd 30 1e 9d bb
       -0.029182585 -0.017998854 -0.06113835 -0.0047948584
000080 09 6f 9f bd 2c 62 a6 bc 0c cd 20 3b 02 f9 01 bd
       -0.0778485 -0.020310484 0.002453628 -0.031731613
000090 07 cf a1 bc 8e 9a c7 3c 1e af a9 3c 2a ca 61 bc
       -0.019752039 0.02436569 0.020713385 -0.01378111
0000a0 3b f0 60 3d f8 52 67 3d 26 e8 35 3d 26 cf a9 b9
       0.0549166 0.05647561 0.044410847 -0.0003238853
0000b0 d5 06 8d bc 36 fd 14 bd af 3f 25 bd e7 d1 c6 bc
       -0.017215172 -0.036374293 -0.040343937 -0.024270011
0000c0 24 91 2e bc 8c d1 7a 3c b0 50 4f bd 05 40 ec bc
       -0.010654721 0.015308749 -0.05061406 -0.02883912
0000d0 fb c6 0e bd ae b6 be 3c 9e 71 fe bc f6 2e 4c bd
       -0.03485773 0.023280468 -0.031060036 -0.049849473
0000e0 d2 aa 5b bd 1d a0 60 bd 2c f0 be 3c 24 35 89 3c
       -0.053629704 -0.054840196 0.023307882 0.016748972
0000f0 c4 ba 9e bd 34 1f f1 3c 74 22 19 bc ef 52 18 3d
       -0.077504665 0.029433824 -0.009346593 0.037188467
000100 61 27 3c 3d c4 89 48 3d 4e 0b 3b bc fc 5e 34 bd
       0.045935992 0.04895951 -0.0114162695 -0.044035897
000110 a9 67 3a 3c d9 ba cf bb 9c fd 6a bc 72 00 ee 3c
       0.011377254 -0.0063394126 -0.014342692 0.029052947
000120 81 6a 0a bc ea 43 18 bd 63 47 bf 3b 7e 9d 32 3d
       -0.008448244 -0.037174143 0.0058373674 0.043607228
000130 a1 91 95 bc f4 e9 1b 3d 57 a2 2b bc 85 f3 3a 3d
       -0.018257918 0.038064912 -0.010475717 0.045642395
000140 22 23 0e bd 1f 0b c0 3c d7 c7 0c bd ff 05 f8 bc
       -0.034701474 0.023442803 -0.03437027 -0.030276297
000150 30 f9 c2 3b 35 85 ed bc 52 20 d5 bb 72 84 25 bd
       0.0059501156 -0.028994182 -0.006504097 -0.040409513
000160 2c 96 56 3d 39 f6 fa bc 26 7b 28 bd de 86 27 3c
       0.05238931 -0.030634986 -0.04113307 0.010225026
000170 4c e7 b0 3d 7c e5 4f 3d a5 a2 af 3d c8 15 80 3c
       0.086378664 0.050755963 0.08575944 0.015635386
000180 a6 0f df 3c 45 94 3c bc a6 d6 29 3d 3a b2 df 3c
       0.027229141 -0.01150996 0.04146447 0.027306665
000190 67 da ba 3c ba 31 8e bd e8 8e 8e bd ca 3f 13 3d
       0.02280922 -0.06943078 -0.06960851 0.035949506
0001a0 a6 ab 97 bd f1 d6 7a bd 0c 46 3b ba 50 cd 93 bd
       -0.07405786 -0.06124014 -0.00071439217 -0.072168946
0001b0 c0 e5 96 3d dc 32 7f 3d d1 2d d5 3b 54 01 15 bb
       0.0736804 0.062304363 0.006505706 -0.0022736387
0001c0 8c ba fc 3c 04 02 ab bc 8c 4b b5 3d aa 37 3f 3c
       0.030850671 -0.020874985 0.088523 0.011670986
0001d0 1c fe 37 3d dc d6 21 bc ba b4 c0 bc ae 25 b5 bc
       0.044920072 -0.009877887 -0.023523677 -0.022112694
0001e0 27 45 aa 3c 86 07 52 3d 68 94 43 bd 82 21 bf 3c
       0.020784928 0.051276706 -0.047748953 0.023331407
0001f0 d0 56 52 3d 7a ba 05 bd 28 60 91 bd c8 5d 0b bd
       0.051352322 -0.03264854 -0.070984185 -0.034024984
000200 b2 0a 17 bd 19 c5 8d bd 20 86 27 3c 73 3a 9d bd
       -0.036875434 -0.06922359 0.010224849 -0.07677164
000210 38 ef 23 bc 9f 73 13 bd a5 5a 96 bd 6c 8c 8a 3c
       -0.010005765 -0.035998937 -0.07341508 0.016912661
000220 6b e2 12 bd e6 35 08 bd 6f 82 4c bd 09 2a 59 bd
       -0.03586046 -0.033254527 -0.04992908 -0.053018603
000230 fc 81 02 3d 14 09 3b 3d 56 6d 50 bd 4b a7 2d 3b
       0.031862244 0.045662954 -0.05088552 0.002649742
000240 60 ed 28 bb 56 11 9b bc f9 f2 7d 3c 27 8a 41 bd
       -0.0025776252 -0.018929165 0.015499824 -0.047250893
000250 a7 5d 5c bc 47 6d 81 3c 7d 1e 37 bd f5 d2 c9 3c
       -0.013450063 0.015799178 -0.04470681 0.024636725
000260 ce 6b c3 bc 38 e8 f5 3c 66 b2 ff b9 0a 2c 05 3d
       -0.023855116 0.030017957 -0.00048770307 0.032512702
000270 08 40 a7 bb 4d 9e 8b 3d bf 7a 38 3c ce 3b 8c 3d
       -0.0051040687 0.06817303 0.011259734 0.06847344
000280 f9 7c 44 bb 52 f0 a8 3a e8 60 4e bd 22 36 81 bc
       -0.0029981716 0.0012889004 -0.050385386 -0.015772883
000290 0f 3c 7c bc 12 8f a4 3c 0a f1 b4 3c e2 df cd bc
       -0.015395178 0.020087752 0.022087593 -0.02513117
0002a0 a3 fa df bb 46 9d dd bc 2e d5 a2 bc 24 5a 92 3d
       -0.006835298 -0.027052533 -0.019877043 0.07146099
0002b0 f3 ad 4c 3d c0 fb 84 3c b5 1a 8f 3d a3 1e 0f 3d
       0.04997058 0.016233325 0.06987516 0.034941327
0002c0 c2 65 f0 3c 81 87 c5 bc 86 69 c3 3b 7e 99 99 3b
       0.029345397 -0.024112465 0.005963507 0.004687487
0002d0 df d4 33 bd c2 99 33 3d 00 d7 11 3d 5e a2 13 3d
       -0.04390418 0.043847807 0.03560543 0.036043517
0002e0 e5 68 cc 3c 24 f2 24 3d a6 24 81 bd 29 a6 81 bb
       0.024952361 0.040269986 -0.06305818 -0.0039565754
0002f0 da a3 a0 3c 6c 21 8c 3c b2 d3 01 3c be 25 10 bd
       0.01960938 0.01710578 0.007924007 -0.035192244
000300 de 0a 46 3d 88 45 22 bb b5 47 41 bb 5e 04 24 3d
       0.048350208 -0.0024760682 -0.0029492204 0.040043227
000310 8f ac 69 bc 06 b2 a7 3c de 13 9a 3d db 7d c1 bc
       -0.014262333 0.02047063 0.075233206 -0.023619583
000320 7a 89 4e bc d0 7a a3 3d 80 7b 16 bb e9 b2 a5 3d
       -0.012606019 0.07982409 -0.0022961795 0.08090765
000330 ef b6 77 3c a1 72 90 3d f0 8e 84 3d 1d 6a 4e 3d
       0.015119298 0.07053114 0.06472576 0.050394166
000340 7d 5b 4c 3d 3d 73 ae bc be 65 da 3c 01 46 29 ba
       0.049891938 -0.021295184 0.026659843 -0.000645727
000350 2f 45 09 3d fc dd 1a 3c 1c 7d 50 3d bd af 99 3d
       0.033513244 0.009452339 0.050900564 0.075042225
000360 ff dc 40 3c af 24 e7 bb 82 41 e0 bb 32 73 26 3c
       0.01177144 -0.0070539336 -0.0068437466 0.010159301
000370 72 b9 33 bd 5c 67 93 bc 2a d1 f0 3b cc 40 84 bd
       -0.043878026 -0.017993622 0.007349153 -0.064576715
000380 84 85 eb bc 23 1e 39 bd 95 81 72 bc dc 1e 94 bd
       -0.028750189 -0.045194756 -0.014801403 -0.072324485
000390 eb 61 8f bd f1 b2 e9 bc 89 c7 81 bd d6 91 7e 3b
       -0.07001098 -0.028527709 -0.063368864 0.003884425
0003a0 a4 be d0 bc 39 db 71 bc f7 11 ac 3c 40 f1 06 3d
       -0.02548153 -0.014761739 0.02100466 0.032944918
0003b0 e3 57 af 3c 0d 38 1b bd 18 c7 77 3c 82 6e c0 3a
       0.021404212 -0.03789525 0.015123151 0.0014681371
0003c0 c3 4b 15 bc ef 42 87 bd 83 98 ee 3c 6f b9 03 3d
       -0.009112301 -0.066045634 0.029125458 0.032159265
0003d0 24 5c 1d 3c aa b5 0d 3c 8f 86 64 bd e8 6a e6 bc
       0.009604488 0.008649269 -0.055792388 -0.028127149
0003e0 db 27 c1 3b 73 75 ae 3d 23 1f 15 3d a2 31 c3 bc
       0.0058946437 0.085184954 0.036406647 -0.023827378
0003f0 a9 e6 2e bd 60 31 87 b9 da ef 09 3d a8 78 0a bd
       -0.042700443 -0.00025785994 0.033676006 -0.033806473

bias f4 [32]
000000 f7 00 af 3c 23 ce 21 bc a5 66 74 3d 2a 40 6e bb
       0.021362765 -0.009875807 0.059668202 -0.0036354163
000010 15 9e 51 3c 1d 26 21 bc 6f 57 14 bd b9 8f 6c 3d
       0.012794037 -0.009835747 -0.036216196 0.057754252
000020 fe bf 34 3d 64 5f 8d bd dc 02 cd bc 60 d4 46 bd
       0.04412841 -0.0690296 -0.025025778 -0.04854238
000030 ba fc 5f 3c 7c 8b 62 bd 53 dd 9c 3c 48 35 0d 3b
       0.013671095 -0.055308804 0.019148504 0.002154665
000040 f5 f3 28 3d 0c 79 45 bc 8b 5d fc b9 23 b4 a1 3c
       0.04124828 -0.012052786 -0.0004813488 0.019739216
000050 7d 07 98 bc 2f 42 14 bd fc da c0 bc 83 d6 35 3d
       -0.018558258 -0.03619593 -0.02354192 0.044394027
000060 81 3a ef 3c 3d 9c 8e 3c 92 e0 d5 bc 1a 1a ad 3c
       0.029202702 0.017408485 -0.02610806 0.02113061
000070 15 14 89 bb e2 43 e4 bc 7b dd 4f 3c fb cf 33 3d
       -0.004183302 -0.0278644 0.012687082 0.043899518

weight f4 [32]
000000 1e 22 7a 3f 88 a3 7c 3f 88 a3 7c 3f 31 87 7e 3f
       0.9770831 0.9868703 0.9868703 0.99425036
000010 be a8 80 3f 75 3e 78 3f a2 41 78 3f 52 86 7a 3f
       1.0051496 0.969703 0.9697515 0.97861207
000020 be a8 80 3f be a8 80 3f 1c cd 83 3f 31 87 7e 3f
       1.0051496 1.0051496 1.029697 0.99425036
000030 1e 22 7a 3f ba 58 82 3f be a8 80 3f 75 3e 78 3f
       0.9770831 1.0183327 1.0051496 0.969703
000040 75 3e 78 3f d4 5c 82 3f be a8 80 3f 42 7c 79 3f
       0.969703 1.0184579 1.0051496 0.9745523
000050 67 e6 80 3f 31 87 7e 3f 2e 58 80 3f 1c cd 83 3f
       1.0070313 0.99425036 1.002691 1.029697
000060 75 3e 78 3f 31 87 7e 3f 88 a3 7c 3f be a8 80 3f
       0.969703 0.99425036 0.9868703 1.0051496
000070 9d 76 81 3f 78 3c 78 3f 75 3e 78 3f 88 a3 7c 3f
       1.0114323 0.9696727 0.969703 0.9868703

bias f4 [32]
000000 44 bc f5 bc d5 30 6e bc 6f c6 ae 3c 88 33 52 bc
       -0.029996999 -0.01453801 0.021334855 -0.012829669
000010 21 47 b9 3c 21 47 b9 bc 6c 0a 68 3b 88 33 52 3c
       0.022616925 -0.022616925 0.0035406603 0.012829669
000020 44 bc f5 3c 83 92 b2 3b 88 33 52 3c 44 bc f5 3c
       0.029996999 0.0054495945 0.012829669 0.029996999
000030 21 47 b9 bc 00 bf 9e 3c 03 e4 c4 3b 21 47 b9 bc
       -0.022616925 0.019378185 0.0060086264 -0.022616925
000040 83 92 b2 bb 21 47 b9 3c 83 92 b2 3b 44 bc f5 3c
       -0.0054495945 0.022616925 0.0054495945 0.029996999
000050 83 92 b2 3b 8d 81 bd bc 44 bc f5 bc 88 33 52 3c
       0.0054495945 -0.023133064 -0.029996999 0.012829669
000060 21 47 b9 3c 21 47 b9 bc 88 33 52 bc 0c d3 0a 3c
       0.022616925 -0.022616925 -0.012829669 0.008473169
000070 21 47 b9 bc a8 eb 0f 3c 44 bc f5 bc 21 47 b9 3c
       -0.022616925 0.008784212 -0.029996999 0.022616925

running_mean f4 [32]
000000 f3 a2 1d be 1e 3e 6b be ec 21 1c be f9 f3 04 3f
       -0.15394191 -0.22972915 -0.15247315 0.5193477
000010 d8 67 28 bf e3 3c e6 3e 61 fb f7 3e 84 2b 9b 3d
       -0.65783453 0.44968328 0.48433974 0.07576659
000020 86 e7 80 3e d4 39 ca be b1 d8 66 3d 56 de de 3e
       0.25176638 -0.39497244 0.056358997 0.43529004
000030 71 05 90 bf d3 98 8f 3e 80 06 5a bf 51 77 27 bf
       -1.125166 0.28046283 -0.8516617 -0.6541644
000040 26 c4 1c 3f 43 de b0 3e 1f af c4 bf e2 c7 96 3f
       0.612368 0.34544572 -1.5365943 1.1779749
000050 d9 34 50 bf 73 2b 0b 3f 3c 1a 16 bf 13 77 4b 3e
       -0.8133064 0.54363173 -0.5863378 0.19869642
000060 5b cc 80 3f 22 5b 14 bf 5e 52 44 3f e9 80 86 be
       1.0062364 -0.5795156 0.7668818 -0.26270226
000070 07 01 bf 3f 35 d7 e3 3e 34 3c 86 be 66 f8 b1 bd
       1.4922189 0.44500127 -0.26217806 -0.08689956

running_var f4 [32]
000000 fe 76 b7 3f f5 e5 cd 3f 63 68 e9 3f e1 f9 60 3f
       1.4333189 1.6085802 1.8234981 0.87881285
000010 93 82 d9 3f 6a c2 97 3f 63 a0 96 3f f7 ab b5 3f
       1.6992973 1.1856205 1.1767696 1.4193105
000020 81 ab 9c 3f 8b ff 81 3f fa ba 9b 3f 09 61 44 3f
       1.2239839 1.015611 1.2166436 0.76710564
000030 81 43 4e 3f f8 90 8a 3f 41 3f 00 3f 92 76 89 3f
       0.8057175 1.0825491 0.5009652 1.073931
000040 bb 01 d7 3f f3 15 88 3f 75 c5 bb 3f 3a 2f 31 40
       1.6797403 1.0631698 1.4669634 2.7685075
000050 75 a6 58 3f bb fe 17 40 0f 53 5d 3f 2f 5a b3 3f
       0.84628993 2.3749225 0.8645486 1.4011897
000060 e9 ec 8a 3f d3 13 6b 3f 5a 32 9b 3f 90 04 63 3f
       1.0853549 0.91827124 1.2124741 0.88678837
000070 ed 58 1c 40 8d ba 2b 3f 17 c6 1a 3f c4 8e 7b 3f
       2.4429276 0.6708153 0.6045851 0.9826472

weight f4 [32, 32, 3, 3]
000000 05 d7 3a bc 6d c7 8e bc 81 e2 e6 bc 74 6e af 3d
       -0.011403804 -0.017429078 -0.028184177 0.08565989
000010 5d 1f 3a 3d e0 a4 89 3d f8 bf 27 3d 5c c3 47 bc
       0.045440067 0.067209005 0.04095456 -0.012192573
000020 64 51 06 3d 41 c7 87 3d 2b 43 ec bc 47 b4 4a 3d
       0.032792464 0.066298015 -0.028840622 0.049488332
000030 b5 1f 5e 3d c9 6c 27 3d b5 5a ae 3d e1 b2 4d bc
       0.054229457 0.04087523 0.08513395 -0.012554855
000040 e5 72 e1 bc e2 c7 63 3d 76 b5 a8 bc e5 8a 92 3b
       -0.027520606 0.055610545 -0.02059434 0.004472124
000050 f8 d4 e3 bc 86 ac 7d bb 63 29 c7 3a 07 6c 15 bc
       -0.027811512 -0.0038707568 0.0015194829 -0.009119994
000060 b4 1a 46 bd 6e cc a9 bc 88 6a be bc f5 ae 16 bd
       -0.04836531 -0.020727362 -0.023244157 -0.036787946
000070 82 a0 07 bc 0a aa 34 bd 96 93 e8 bc 16 7b bf bc
       -0.008278014 -0.044107474 -0.028390687 -0.023374122
000080 27 de 51 bd b4 8c da bc c1 6b bb bb 05 e5 14 bc
       -0.05123725 -0.02667842 -0.0057196324 -0.009087806
000090 2c a4 23 bc 16 5b 38 bc c8 e3 d7 bc a2 32 63 3c
       -0.009987872 -0.011252185 -0.026353732 0.013867052
0000a0 a3 30 3d bd 2c 62 f5 3c e6 bf ef bc da bd 97 bc
       -0.04618896 0.029954039 -0.029266309 -0.018523145
0000b0 e0 dd 75 bc f2 36 3f bd 28 df c0 3c 53 28 8b 3c
       -0.015006512 -0.04668326 0.02354391 0.016987002
0000c0 d5 f2 54 bd eb 95 4e bd f3 81 ec 3c dc 6e da 3c
       -0.051989395 -0.05043594 0.028870558 0.02666419
0000d0 e9 cf 3d 3c 26 d6 12 bd d6 77 6c bc 11 98 df bb
       0.011585214 -0.03584876 -0.014432868 -0.0068235477
0000e0 dc 2a a4 3c 14 e9 e8 bc 85 4e 31 bd 27 21 b2 bc
       0.020039968 -0.028431453 -0.043287773 -0.021744324
0000f0 96 aa 7d 3c 5a 5d a0 3c 82 21 60 bc 1c fa 4d 3d
       0.015482565 0.019575763 -0.013679864 0.05028735
000100 85 5a a3 3c a4 c2 b9 bc 56 02 dc 3c 6a 90 ec 3c
       0.019940624 -0.02267582 0.026856583 0.028877456
000110 7a 92 3a bd f4 80 14 bd 23 58 1a bc ea d2 4e 3c
       -0.045549847 -0.03625579 -0.0094204275 0.012623528
000120 d5 7b 0f bc 91 9e 00 bc 6b 22 99 bc a8 8e 5c 3c
       -0.008757551 -0.007850305 -0.01869317 0.013461746
000130 83 5d e0 bc f0 85 89 3d ce e1 a9 3d 46 38 10 3d
       -0.02738834 0.06715 0.08295022 0.035209917
000140 e1 32 3e 3c af 37 98 bc 0b 62 d3 3c 15 e3 3a bd
       0.01160881 -0.01858124 0.025803586 -0.04562672
000150 3e 97 44 bd b7 01 95 bc e1 9b 87 bd f4 0d a6 3c
       -0.0479958 -0.018189294 -0.066215284 0.020270325
000160 a0 94 56 bd 98 9e 95 bd 48 81 39 3d c6 24 c6 3c
       -0.052387834 -0.0730564 0.045289308 0.024187457
000170 2a 00 69 3d 9e 6d 82 3d 56 d6 ac 3d a6 0a 6d 3d
       0.056884922 0.06368564 0.08439319 0.057871483
000180 8a 5f a8 3c b4 b1 cd 3c 1f 18 9d 3c 82 40 39 3d
       0.02055337 0.02510915 0.01917654 0.045227535
000190 00 aa 87 b9 d7 f9 40 3d dc 03 dd 3c 36 16 55 3c
       -0.00025875866 0.047113266 0.02697938 0.013005784
0001a0 09 2c dd 3b 52 f6 79 3c 9f e4 9f 3c df c1 1f bd
       0.006749634 0.015256481 0.019518195 -0.03900325
0001b0 12 f7 50 3d 0d d1 51 bc 3d ab c6 3c 6e 90 96 3b
       0.051016875 -0.012806189 0.024251575 0.004594854
0001c0 1d ff 3f 3d e1 51 d2 3c 18 84 91 3d 35 ce 15 bd
       0.046874154 0.025673809 0.07105273 -0.036573607
0001d0 24 dc 2f 3c 08 1c 54 bd de 9a 7a bc f1 9d bf 3c
       0.010733638 -0.051784545 -0.015295712 0.023390742
0001e0 bc 24 59 3d 05 39 9c bc 5c 7a da 3c 96 e8 44 bd
       0.05301355 -0.019070158 0.026669674 -0.048073374
0001f0 4d 69 7f bd 9d 64 6c bd 04 5c 49 bd 53 4a a4 3c
       -0.062356282 -0.05771314 -0.04916002 0.020054972
000200 01 90 00 3d c6 5e d2 bb b7 cf 98 3c cc 87 4b 3c
       0.031387333 -0.0064199893 0.018653734 0.012422513
000210 b3 95 eb bc 5c 5f 6e bc e9 b5 92 bd b7 61 1d 3d
       -0.028757906 -0.014549103 -0.07163603 0.038423266
000220 54 0a 8a 3c c5 ca 24 bc 35 5f 97 bb a2 53 6e bd
       0.016850628 -0.01005811 -0.004619504 -0.058185227
000230 25 a0 92 bc 4b 6b 90 bd 68 72 c2 bb 46 d7 a3 3c
       -0.017898628 -0.070517145 -0.0059340484 0.020000111
000240 aa 67 ed 3c 86 ff cd ba 4f ab 9f bd 57 cd ed bc
       0.028980095 -0.0015716411 -0.077963464 -0.029028578
000250 03 83 a6 bd cc 9f fc 3c 2c 68 69 bd 12 a5 0e bd
       -0.08130457 0.030837916 -0.05698411 -0.034825392
000260 76 6c 8f bc ce a5 2a 3d c9 9a e7 bc b8 00 59 3d
       -0.017507773 0.04166203 -0.02827205 0.0529792
000270 41 9c a2 3d 76 44 90 3c f1 bd 96 3d ca a6 f4 3b
       0.07939959 0.01761077 0.07360447 0.007466172
000280 6c 44 10 bd fa ef 77 3d 77 1a ef ba 8e 9c 48 bd
       -0.035221502 0.060531594 -0.001824214 -0.048977427
000290 54 a1 c4 bc a8 51 24 3b 27 41 a1 bd 46 fa 6d bd
       -0.024002708 0.0025073085 -0.07873755 -0.058100007
0002a0 b6 b2 63 bd 01 bc 33 3c b0 79 b5 bd 09 51 6d 3d
       -0.055590354 0.010970117 -0.08861101 0.05793861
0002b0 b5 f4 bc bc c6 9d e2 3c d4 e0 d7 3c 9f 6f 37 bc
       -0.023065904 0.027663123 0.026352324 -0.011196046
0002c0 bd dc 08 3c 24 e8 1f 3d 15 27 1d bd 40 f9 18 3d
       0.008353409 0.039039746 -0.03836735 0.03734708
0002d0 b7 94 8e 3d 99 99 f3 3c 8f a6 a0 3c 40 04 f7 3c
       0.06961959 0.029736327 0.019610671 0.030153394
0002e0 59 31 27 3d 59 dd 80 3c 5f 04 4b bc 72 31 81 3d
       0.040818546 0.015730547 -0.012391179 0.06308259
0002f0 04 fe cf 3c 0c 9c 3f 3d e6 19 5d bd a0 6c 03 bb
       0.025389679 0.046779677 -0.053979777 -0.002005376
000300 8d 58 39 3d 91 a0 7b bd da 81 e8 bc 73 76 ab 3b
       0.045250464 -0.061432425 -0.02838223 0.005232626
000310 68 a0 ea bc b3 71 4f 3d b7 62 a1 3d 79 2b a0 3b
       -0.02864094 0.05064554 0.078801565 0.004887995
000320 24 0b c6 3c 82 cf aa 3d 97 67 e8 3c 7e 75 af bc
       0.024175234 0.0834036 0.028369708 -0.02141833
000330 8f c0 e7 bc 88 7b 20 bc 51 ba 4e bd 45 64 1d 3d
       -0.028290061 -0.009795077 -0.050470654 0.038425703
000340 13 bb 2f 3d c9 7a 9d 3d 6e 87 29 3d 3d 47 a6 3d
       0.042903017 0.07689435 0.04138892 0.081190564
000350 1d 3e b6 bc f1 b6 46 bc e2 62 9b 3d a4 1b 49 3d
       -0.022246415 -0.012128578 0.0758722 0.049098626
000360 43 6f ba 3c 56 0a 03 3c 98 5e cc bc ef 3a 92 3c
       0.022758132 0.00799807 -0.02494745 0.017850367
000370 9c 25 2f 3d b2 cd 1f 3d 88 97 05 3d 35 01 50 3d
       0.042760476 0.039014526 0.032615215 0.0507824
000380 a4 1e 13 bd 76 15 93 bc 7b e5 3f 3d 4d 4e 6e bd
       -0.035917893 -0.01795457 0.04684971 -0.058180142
000390 88 6c a1 3c 53 47 33 bd 4e 78 52 3c aa 1f 9d 3d
       0.019705072 -0.043769192 0.012846066 0.07672055
0003a0 d2 87 5b 3d 07 01 9e 3d 2f 45 64 bd d8 30 d7 3c
       0.053596325 0.0771504 -0.05573004 0.026268408
0003b0 6a 57 74 bd 3e c4 da 3c 25 31 5b bd cd e3 19 bd
       -0.059653677 0.026704904 -0.053513665 -0.037570763
0003c0 43 66 7e bd 0d 67 16 3d bd 09 d0 3c 72 8c c8 bb
       -0.062109243 0.03671937 0.025395269 -0.006120258
0003d0 b4 ee 52 3d ac cf f6 3c 74 ee 85 3d be 14 da 3c
       0.051497176 0.030128323 0.06539622 0.026621219
0003e0 4f d3 f7 b9 1f ba 36 3a ca 6f 1e 3c 8e 92 26 3d
       -0.00047268948 0.0006970483 0.009670207 0.04066711
0003f0 0a 15 5d 3d 30 51 ed 3c 9e 9a 45 3c f8 b2 05 3d
       0.053975143 0.028969377 0.012060789 0.03264138

bias f4 [32]
000000 f6 37 9a bb 81 c4 e0 bc 07 61 46 bc 99 60 4f bd
       -0.004706378 -0.02743745 -0.012108094 -0.050629232
000010 69 f2 61 3d c1 be 6c bb 46 be 75 bd 2e 79 42 bd
       0.05516282 -0.003612444 -0.059995912 -0.047478847
000020 e9 47 88 bd 0c c5 15 bc 93 47 84 bd 34 fa bd 3c
       -0.06654341 -0.009141218 -0.06458964 0.023190595
000030 57 aa 49 bd 47 82 82 bd 74 06 87 bd 0c 03 2b 3d
       -0.049234714 -0.06372505 -0.06593028 0.041750953
000040 2a 19 b4 bc 0b f4 8d 3b fb dd 8b bd 5d 27 72 3d
       -0.021984655 0.0043320707 -0.06829449 0.05911957
000050 69 7e f8 bb 2e 0a 33 3d 3c 77 39 bc 37 8b 19 3d
       -0.0075834286 0.04371088 -0.011319932 0.03748628
000060 48 4a 7b bd 03 a4 0e bd d0 2c 43 bc a2 1f 6d 3d
       -0.061350137 -0.034824383 -0.01191254 0.057891496
000070 13 11 4c bd 1b 58 12 3d e9 35 98 3d fc d6 97 39
       -0.04982097 0.035728555 0.074321575 0.0002896114

weight f4 [32]
000000 31 87 7e 3f 88 a3 7c 3f 51 3a 80 3f d3 d7 80 3f
       0.99425036 0.9868703 1.0017797 1.0065864
000010 bf 2c 7f 3f 1e 22 7a 3f bb 4b 78 3f be a8 80 3f
       0.9967765 0.9770831 0.96990556 1.0051496
000020 be a8 80 3f be a8 80 3f 92 9a 81 3f be a8 80 3f
       1.0051496 1.0051496 1.0125296 1.0051496
000030 96 68 7d 3f d6 38 7a 3f f4 89 81 3f 1e 22 7a 3f
       0.9898771 0.97742975 1.0120225 0.9770831
000040 31 87 7e 3f 48 db 82 3f be a8 80 3f 88 a3 7c 3f
       0.99425036 1.0223169 1.0051496 0.9868703
000050 be a8 80 3f 31 87 7e 3f 48 db 82 3f 5f ac 83 3f
       1.0051496 0.99425036 1.0223169 1.0286978
000060 31 87 7e 3f 92 9a 81 3f 31 87 7e 3f 87 9b 82 3f
       0.99425036 1.0125296 0.99425036 1.0203713
000070 be a8 80 3f 89 c0 80 3f 1c cd 83 3f 4f 9d 7e 3f
       1.0051496 1.0058757 1.029697 0.99458784

bias f4 [32]
000000 21 47 b9 bc 21 47 b9 bc 21 47 b9 3c 44 bc f5 bc
       -0.022616925 -0.022616925 0.022616925 -0.029996999
000010 04 80 b7 3c 21 47 b9 bc 83 92 b2 3b 21 47 b9 3c
       0.02239991 -0.022616925 0.0054495945 0.022616925
000020 44 bc f5 3c 83 92 b2 3b 88 33 52 3c 44 bc f5 3c
       0.029996999 0.0054495945 0.012829669 0.029996999
000030 83 92 b2 bb 88 33 52 bc a9 da e3 3b 83 92 b2 bb
       -0.0054495945 -0.012829669 0.0069535566 -0.0054495945
000040 83 92 b2 bb 21 47 b9 3c 83 92 b2 3b 6a c6 43 bc
       -0.0054495945 0.022616925 0.0054495945 -0.011949161
000050 2d 4a 43 3a 21 47 b9 bc 88 33 52 bc 88 33 52 3c
       0.0007449713 -0.022616925 -0.012829669 0.012829669
000060 16 6f a8 3b 21 47 b9 bc 88 33 52 bc 83 92 b2 3b
       0.0051401956 -0.022616925 -0.012829669 0.0054495945
000070 38 92 f4 bc 88 33 52 3c 65 da f0 bb 21 47 b9 3c
       -0.029854879 0.012829669 -0.0073502534 0.022616925

running_mean f4 [32]
000000 d6 25 cd 3e e6 37 16 3e b5 42 f0 bf f8 bc d7 3f
       0.4006793 0.14669761 -1.8770357 1.6854544
000010 98 69 cf 3f e2 83 26 bf 38 ef 7a be b1 32 2f bf
       1.62041 -0.6504499 -0.24505317 -0.68436724
000020 a5 8e 97 3e cb 74 18 3f ef 16 a1 3e 06 1a 5f 3e
       0.29601017 0.5955321 0.3146281 0.21787271
000030 e0 b3 43 bf 2a 52 e5 3f eb 8a 25 3f 77 48 c9 bf
       -0.7644634 1.79157 0.64665097 -1.572524
000040 f5 ba 64 bf 6e fd 3f 3e 11 41 a4 bf 8e b7 19 3f
       -0.89347774 0.1874902 -1.2832357 0.6004571
000050 93 9f 66 be 11 5e c2 3f cc 1a a4 3e af 67 35 3f
       -0.2252181 1.5184957 0.32051694 0.70861334
000060 9e 70 5f 3f 8b 5b 82 be 03 90 cb be 64 9b b1 bf
       0.87281215 -0.25460467 -0.3975831 -1.3875546
000070 bd d2 86 3e 3a 54 1a bf 0f 3f f0 3d f2 3f 1c be
       0.26332656 -0.6028477 0.117307775 -0.15258768

running_var f4 [32]
000000 e6 e4 84 3f 97 c0 85 3f bf 5f 0d 40 8d 4d 88 40
       1.0382354 1.0449399 2.2089689 4.2594666
000010 ea 2a 67 40 de 7b 8a 40 1d 3f 41 40 85 5a 1b 40
       3.6119943 4.3276205 3.0194771 2.4273999
000020 85 85 9b 3f d1 25 68 40 47 99 31 40 72 8d 43 3f
       1.2150122 3.6273081 2.7749803 0.76387703
000030 65 0d 6e 3f 99 36 d8 3f 3b 50 b0 3f 72 ed 13 40
       0.9298919 1.6891662 1.3774484 2.3113675
000040 f0 2f e0 3f 22 6a 36 40 1a 1f d3 3f 8d 43 70 40
       1.7514629 2.8502278 1.6493866 3.754123
000050 0f 6d d2 3f 05 1f 4f 40 c1 98 11 40 14 d3 07 40
       1.6439532 3.2362683 2.2749484 2.1222582
000060 d9 58 fc 3f 7c 25 a7 3f 7f 7f 62 3f 5e ba 34 40
       1.9714614 1.3058314 0.88475794 2.823875
000070 f8 16 5a 40 67 59 8a 3f e5 a9 83 3f 29 57 03 40
       3.407652 1.0808533 1.0286223 2.0521948
