networks/policy_network.pth (torch, 511403 bytes, 79 tensors)

weight f4 [32, 20, 3, 3]
000000 19 58 4b 3d 54 b4 83 3d a1 ed 67 bd 77 32 a5 bd
       0.049644563 0.06430879 -0.056623105 -0.08066266
000010 47 82 35 bd c3 fe 42 bd 60 0f 62 bd c1 29 58 3d
       -0.044313695 -0.04760624 -0.055190444 0.052774195
000020 ce 1b da 3a c0 a9 0f bd 95 b2 8f bd 8e 17 6a 3d
       0.0016640367 -0.035073996 -0.07016484 0.05715137
000030 3a 38 6d 3d 9e a0 28 3d 33 ad 39 3c 16 5f 88 bd
       0.05791495 0.0411688 0.011332798 -0.06658761
000040 c4 84 8f bc 2b fe d0 bc ec 68 4e bc ff f7 00 3d
       -0.017519362 -0.025511822 -0.0125982575 0.031486508
000050 cb 1f ee 3c af 84 e1 bd 86 51 be bd a4 ee 8d 3d
       0.029067894 -0.110116355 -0.09292893 0.06930283
000060 87 00 12 bd 13 81 7b b9 a1 c0 61 bd 11 50 5b 3d
       -0.035645034 -0.00023985309 -0.055115346 0.053543154
000070 07 19 de bd f9 50 3b bd 20 c2 c2 3d 5a 70 20 bc
       -0.10844617 -0.04573152 0.09509683 -0.009792412
000080 a8 3f f0 3d 75 d3 f0 3c 6b ec c2 3d 3a b0 73 bc
       0.117308915 0.029397706 0.095177494 -0.014873559
000090 72 e1 9a 3a 7d 0f 68 3d ff c3 73 3d 01 65 a9 bd
       0.0011816456 0.056655396 0.05951309 -0.08271218
0000a0 24 12 9d bd b0 61 23 3c 6c 9c d2 bd ca f7 43 bd
       -0.07669476 0.009972021 -0.10283741 -0.047843732
0000b0 18 7a d3 bc 12 e2 fb 3c 35 fb 3e bc 0a 33 1d bd
       -0.025815055 0.030747447 -0.011656572 -0.038378753
0000c0 36 29 70 3d 15 59 82 bc 4d 34 96 bd 4f 5c 32 3d
       0.05863305 -0.015911618 -0.07334194 0.043545064
0000d0 0e 89 b6 bd 25 c1 08 3b 3c d0 e8 bd 3d dd 98 bc
       -0.0891286 0.0020867076 -0.113678426 -0.018660182
0000e0 4d de 62 3d 82 af 8e 3c dd e9 ed bd 9a bf 9e bc
       0.055387784 0.017417673 -0.116168715 -0.019378472
0000f0 b3 c3 9e bd 3f b6 13 bc 77 ae d4 bd a0 7d ec bb
       -0.077521704 -0.009015619 -0.10384839 -0.007217124
000100 0d 8f 9d bd bd 17 77 3c 48 14 69 bd eb 95 ae 3c
       -0.076933004 0.015081343 -0.056904107 0.02131172
000110 c2 ef 6c bc d5 07 99 3d 25 49 d8 3d 36 94 a6 bd
       -0.01446146 0.07472197 0.10560826 -0.08133738
000120 e3 60 90 3c 66 6a 90 3c 22 33 fc 3d 8b a7 03 3e
       0.017624324 0.01762886 0.1231444 0.12856881
000130 f4 10 d9 3b be 1c ac bc 8c c0 5e 3d b5 53 28 3d
       0.0066243354 -0.0210098 0.054382846 0.041095454
000140 d2 0b 67 3d a9 16 20 3d 19 ce 51 3c 30 cc 9e bb
       0.056407757 0.03908411 0.012805485 -0.0048461184
000150 78 29 9f 3d 4f 8f a2 3d 50 de 42 bd c7 dc 2c 3d
       0.077715814 0.0793749 -0.047575295 0.042202737
000160 0f 97 34 3d be d5 94 bc fb 62 af bd 94 e8 0b bd
       0.044089373 -0.018168326 -0.08563801 -0.03415735
000170 eb e2 19 3d 1c de c4 3d f3 1d a0 3c 4f 8f ff 3d
       0.03756992 0.096126765 0.01954553 0.12478506
000180 e1 05 c4 3d 9f 1f 61 3d f7 4c ef 3d a8 02 ba bc
       0.09571434 0.054961797 0.11684602 -0.022706345
000190 d3 b2 f3 3c bd a4 8a bc 88 1a 32 bd c6 29 8c 3d
       0.029748356 -0.016924256 -0.043482333 0.06843905
0001a0 28 1f 90 3d 1c ef 0e 3e bb 7b 7f 3c d6 1e 0a b9
       0.070371926 0.139584 0.0155934645 -0.00013172193
0001b0 06 96 52 bd df fd 26 bd 7b 09 94 3b 0d 7d f8 bc
       -0.051412605 -0.040769454 0.0045177317 -0.030333066
0001c0 16 3f 36 3d bb 93 34 3d fe e5 4b bd a2 29 8f bc
       0.044493757 0.0440862 -0.049779885 -0.017475907
0001d0 2e 27 45 3d fc b5 34 3d 28 ba 06 bd 9e 95 34 3d
       0.048133068 0.044118866 -0.032892376 0.044088
0001e0 3a eb 82 bd de 6f d4 bc 4d 29 83 bd 9f 7c 4e bd
       -0.06392522 -0.025932249 -0.06404362 -0.050411817
0001f0 a3 ea c0 3c 12 f3 88 bd 5d 35 c5 3c 7e ab 95 bd
       0.023549384 -0.06686987 0.024073297 -0.073081
000200 80 e5 6e 3d 98 75 5e bc f7 b9 92 3c bd 2e 91 bd
       0.058324337 -0.013577841 0.01791094 -0.07088993
000210 54 8b 11 bc 30 db 78 3d 04 11 3f bd 04 02 8b 3c
       -0.008883316 0.06075591 -0.046647087 0.016968735
000220 03 8a b2 bc 85 bd 16 bc 4c 5f c3 bb 66 06 7d bd
       -0.021794325 -0.009200458 -0.005962288 -0.06177368
000230 a5 f2 72 bd c9 ea 47 bd 4e 8d 4b bd d9 48 79 bd
       -0.059313435 -0.048807893 -0.049695306 -0.06086049
000240 d9 d7 41 3d 8b ca 5b 3d 1d a8 81 bd 99 7d 49 bd
       0.04732499 0.053659957 -0.06330893 -0.049192045
000250 80 4a 83 3c f5 43 25 3d f4 b9 56 bc 4c d7 4e 3c
       0.016026735 0.040348012 -0.013105858 0.012624573
000260 35 db 93 3d e3 3d 0e 3d c7 1b d8 bc 66 7e 8c bc
       0.07219545 0.03472699 -0.026380433 -0.017150115
000270 74 c2 c1 3c 7b f2 10 bd f3 4d 0a 3c 79 ef e6 3c
       0.023652293 -0.035387497 0.008441436 0.028190361
000280 ad 23 16 bd ff 89 ff bc 84 96 8d 3d f8 21 c3 bc
       -0.036655117 -0.031193731 0.06913474 -0.023819908
000290 7e 05 8e 3d 40 eb a0 3b cd 47 91 ba 2b 65 ca 3c
       0.06934641 0.0049108565 -0.001108402 0.024706444
0002a0 81 2c 71 3c 03 62 f2 bd 26 84 d3 bd a4 ce c7 bd
       0.014720083 -0.118351005 -0.1032794 -0.097562104
0002b0 ae 42 1a be 62 ff c0 bd 8d 2a 15 bd a7 19 a3 bd
       -0.15064499 -0.094237104 -0.036417533 -0.07963877
0002c0 78 bd e4 bd ad 64 ac bc 80 40 bc bd 43 18 13 bd
       -0.11168951 -0.0210441 -0.0919199 -0.03591181
0002d0 5e 31 80 bc 80 d8 9f bd 3c 1e f1 3c 99 57 e6 bd
       -0.01564854 -0.07804966 0.029433362 -0.11247177
0002e0 f7 c3 d2 3c d7 52 aa bd f7 eb 9f bd 89 9f 60 bd
       0.025728209 -0.08316582 -0.078086786 -0.054839645
0002f0 a3 5c b5 bd 78 37 8f 3c d9 9e c4 bb e1 84 0b bd
       -0.0885556 0.017482504 -0.0060003814 -0.03406227
000300 7b c9 51 bc 74 87 4d bc 83 29 49 3c e0 1e ab 3c
       -0.012804384 -0.012544502 0.012277964 0.020888746
000310 aa 9c c2 bd f7 e4 35 bc 88 28 13 3e 11 4e f9 3c
       -0.095025375 -0.011101953 0.1437093 0.030432733
000320 97 d5 b8 3d 29 b6 6c 3d 8f dd e3 3d 7a 2e aa 3d
       0.09025114 0.05779091 0.11126243 0.08309646
000330 04 a6 4f 3d 2c 82 9b 3d fd b8 ba 3c 16 c7 97 3d
       0.050695434 0.07593188 0.022793287 0.074110195
000340 e5 ea 55 3d 0d 2b 48 bd 79 58 1a 3d b9 5f 8f bc
       0.052225966 -0.04886918 0.03768203 -0.017501699
000350 02 cc 9a bd ad 40 28 3c 9f 3f 74 3d f0 21 6a bd
       -0.07558443 0.010269326 0.059630986 -0.05716127
000360 61 c8 05 3d e4 55 f1 3c c3 9e b8 3c d6 ec 99 3c
       0.0326618 0.029459901 0.022536641 0.01878969
000370 3d f8 91 3c 1d eb 2e bb 6d d0 af 3b 67 b7 c4 3d
       0.017818565 -0.0026690431 0.0053654225 0.09605294
000380 a0 d4 90 bc 1a 88 ba bb 14 24 a2 3c 19 c1 6e bc
       -0.017679513 -0.005692494 0.019792594 -0.014572405
000390 6f 3b 51 3d 56 16 b9 bc ce 33 37 3c 80 af 9d 3d
       0.05108207 -0.022593658 0.011181785 0.076994896
0003a0 8f 7e 65 3d fe cf 1c 3c 92 9a 9c 3c eb dc 06 bd
       0.0560289 0.009571074 0.019116674 -0.032925528
0003b0 2b 28 03 3d d1 76 2c 3d 8c 83 dd 3b e5 ff a4 39
       0.03202073 0.0421055 0.0067600664 0.00031471174
0003c0 41 39 44 3d 1f b8 29 3d 15 c0 01 3d e5 93 d5 3a
       0.047906164 0.041435357 0.031677324 0.0016294686
0003d0 9e 55 02 3c e9 7b f5 3d ce 95 91 3d c0 72 9b 3d
       0.007954983 0.119865246 0.07108651 0.07590246
0003e0 c0 89 ba 3d eb 69 4a 3d bc 90 eb 3c 65 58 82 3c
       0.09108305 0.049417417 0.028755538 0.01591129
0003f0 b8 7a 0d 3e 61 f2 52 3d 2d d0 65 3d 62 6b f7 3d
       0.13816345 0.05150068 0.056106735 0.120810285

bias f4 [32]
000000 4c c4 d4 3d e6 1c c8 bd ca 04 bc bc 0d c9 ca bd
       0.10389003 -0.09771137 -0.022951502 -0.09901629
000010 54 b6 4f bc d7 88 69 3d 72 1b c9 3c 6c 47 56 bd
       -0.012677748 0.057015266 0.02454922 -0.052314207
000020 1c b5 43 bd 59 d1 d2 bd 4a b6 27 3d 08 11 c0 3c
       -0.04778014 -0.10293836 0.04094533 0.023445621
000030 f1 cf 53 bc a5 ff b1 bd db e4 b2 bc 84 2a 20 bd
       -0.012927995 -0.086913384 -0.021837642 -0.039103046
000040 e2 65 04 3d 22 ed 05 bc af a8 c2 3b 1d 72 2a 3d
       0.032323726 -0.008174213 0.005940519 0.041612733
000050 07 fb 02 3d 55 72 2c 3c f7 95 70 3c a4 c1 f4 bc
       0.03197768 0.010525306 0.014684192 -0.029877491
000060 8c 6e 19 3d 9f 15 d6 3b 23 1e 53 3d aa 08 c0 bb
       0.03745894 0.006533339 0.051542412 -0.005860408
000070 72 23 31 bc ff 12 ce bd da ed 83 ba 17 58 15 3d
       -0.0108116735 -0.10062217 -0.0010065392 0.036460962

weight f4 [32]
000000 64 7d 7a 3f 4b ff 81 3f ab 6e 7d 3f 7b b3 89 3f
       0.9784758 1.0156034 0.9899699 1.0757898
000010 1d ba 79 3f 33 85 7a 3f a2 2d 87 3f 78 39 6e 3f
       0.9754961 0.97859496 1.0560801 0.9305644
000020 6d 13 78 3f f7 84 7e 3f 18 d7 7f 3f 94 00 81 3f
       0.9690464 0.9942164 0.9993758 1.0078301
000030 2d 12 7a 3f 0c 8b 7c 3f 5a 68 85 3f a0 87 7d 3f
       0.97683984 0.9864967 1.042247 0.9903507
000040 4c fb 78 3f e7 34 78 3f cf 22 78 3f 39 e3 6c 3f
       0.9725845 0.9695572 0.96928114 0.92534214
000050 ba 32 81 3f 6b cc 77 3f 16 8a 75 3f bd d3 7e 3f
       1.0093606 0.9679629 0.9591383 0.99541837
000060 9f b3 83 3f ef db 7f 3f 59 c0 77 3f 63 e0 80 3f
       1.0289191 0.9994497 0.96777874 1.0068477
000070 92 77 74 3f 9d c3 83 3f c2 7b 80 3f 00 fa 85 3f
       0.9549495 1.0294071 1.0037768 1.0466919

bias f4 [32]
000000 1f 93 68 bd 84 7d 8d bd 1b 1a 28 3c 79 3f ac bc
       -0.05678093 -0.06908706 0.01026013 -0.02102636
000010 9d 4f fd 3b bf 65 8d bd 58 34 23 ba 45 8e 72 bd
       0.007730438 -0.06904172 -0.00062257564 -0.05921771
000020 0f 7c ac bc 82 68 da 3c 3f ed 2b bc 3f 81 28 3d
       -0.02105525 0.026661161 -0.010493576 0.041138884
000030 46 1b bf bc f7 80 8c 3c c0 c5 27 bc 8f d6 1a bd
       -0.023328435 0.017151339 -0.010240018 -0.037802275
000040 f6 1b 50 bc 88 b4 2e bc 3d 6d f2 3b 41 25 38 bd
       -0.012701979 -0.010663159 0.007398276 -0.044957403
000050 58 34 23 3a 99 6d 86 3a 52 52 d6 3c 28 23 f7 bc
       0.00062257564 0.0010256051 0.0261623 -0.030168131
000060 f8 b0 ed 3c c1 bf 59 3c ce 9a 36 bd a8 3f 51 bd
       0.02901505 0.013290347 -0.044581227 -0.051086098
000070 d7 ac 84 ba 6b 1b 25 bd 11 b1 ed 3c f3 22 90 3c
       -0.0010122311 -0.04030935 0.029015096 0.01759479

running_mean f4 [32]
000000 5c d9 10 bf e5 88 40 bf d5 09 18 3e 7c 5f 1a bf
       -0.56581664 -0.75208884 0.148475 -0.6030195
000010 82 27 3c bf e4 39 ed be 8c d6 0a bf 4d 95 0c 3e
       -0.73497784 -0.4633323 -0.5423362 0.13728829
000020 3e 59 18 3e ff 22 a8 3d 88 91 05 bf 36 72 a4 bd
       0.14877793 0.082098 -0.5217519 -0.080295965
000030 f1 99 e4 3e 6d b0 02 3f 8b 3e f2 be 16 c2 19 bf
       0.44648698 0.51050454 -0.47313341 -0.60061777
000040 2e f0 99 3e a7 54 8f be cf 34 12 3f e0 d6 38 bf
       0.30066055 -0.27994272 0.5711183 -0.72202873
000050 6c 94 d5 3e 26 f9 7d be 58 e0 0d 3f b5 d8 f9 3e
       0.417148 -0.24802074 0.55420446 0.48798147
000060 ae 10 ec be 85 b3 24 bf e5 4b 72 be c4 52 0d bf
       -0.46106476 -0.64336425 -0.23661764 -0.55204415
000070 6f 0f cb 3e 30 e1 82 bd 71 ab 1b 3f 8d b3 f2 be
       0.39660212 -0.06390607 0.60808474 -0.4740261

running_var f4 [32]
000000 e4 9e f2 3c c4 58 cb 3d 30 51 a2 3d 72 7f 21 3d
       0.02961678 0.0992904 0.079256415 0.039428182
000010 98 86 39 3d e3 7e e0 3c 61 d4 99 3d bb c3 8b 3d
       0.045294374 0.027404254 0.07511211 0.06824442
000020 4c 16 37 3d 69 2c 92 3d 46 18 3f 3e df f0 48 3d
       0.044699 0.07137377 0.18661603 0.049057838
000030 a8 f2 e7 3d 8b 23 76 3d 0d 84 28 3d cd 2a 1c 3d
       0.1132558 0.06009249 0.04114156 0.038126756
000040 d9 51 02 3d 9a 33 ed 3d 59 7f 03 3d d7 be 22 3e
       0.031816337 0.11582108 0.03210387 0.15893112
000050 ab 53 3b 3d 14 19 85 3d 3e ab a2 3d 4c d8 ff 3c
       0.04573409 0.06498924 0.07942818 0.031231068
000060 cc 1a 94 3d d4 8f 01 3e 38 f6 26 3e c8 ce f1 3c
       0.072316736 0.12652522 0.16304862 0.029517546
000070 2b e7 d6 3c e6 c6 fe 3c f0 fd 1c 3e 45 84 e9 3d
       0.026233276 0.031100702 0.15331244 0.114021815

weight f4 [32, 32, 3, 3]
000000 f7 76 4a 3c 1d 3b a7 bc 38 22 af 3a 99 80 9e bc
       0.012357465 -0.02041393 0.0013361638 -0.01934843
000010 d0 c2 17 bd d3 18 73 bd 57 e2 87 bd 05 ba 5a bd
       -0.037051022 -0.059349846 -0.06634968 -0.05340006
000020 85 5b 0c 3c 73 e4 c9 3c c4 ce 8b bd a6 b0 be 3c
       0.008566742 0.024645066 -0.06826547 0.023277592
000030 45 21 b3 bd 18 d0 07 bd 08 be 26 bd ca 3e da bc
       -0.0874658 -0.033157438 -0.04070857 -0.026641268
000040 00 3c 5a bb c9 80 34 bd ac 57 8a bd 51 34 82 bd
       -0.0033299923 -0.04406813 -0.06755003 -0.06357635
000050 cd e8 81 3c 14 56 2f bd 14 bd 07 bd 50 be be bd
       0.015858078 -0.0428067 -0.033139303 -0.09313643
000060 f1 0b ba bd 2f e3 43 bc 22 9e eb bc ec 97 10 3d
       -0.09084309 -0.01195602 -0.028761927 0.035301134
000070 3f 1e 08 3e d9 ed ae 3c 3a b3 9a bc a0 66 ea bb
       0.13292788 0.021353649 -0.01888429 -0.007153347
000080 d5 04 85 bb 4d d1 57 3d 7c 8b 32 3c 07 8c d4 3d
       -0.004059414 0.05268984 0.0108975135 0.103782706
000090 d1 f6 75 3d 41 5c aa 3d 64 92 3e 3c b3 7c 0f bc
       0.060049836 0.08318377 0.011631582 -0.008757758
0000a0 3b 82 3b bd ce 97 5a 3d 35 45 a1 3c ca 69 85 3c
       -0.045778494 0.05336743 0.01968632 0.016285796
0000b0 dc 82 1b bb 49 86 0b 3d 46 f4 4b 3c c1 0b a5 3d
       -0.0023729121 0.03406361 0.012448376 0.080588825
0000c0 f6 54 81 3d d0 0f 18 bd b9 cc b1 bc b0 21 d3 bc
       0.06315033 -0.037124455 -0.021704065 -0.0257729
0000d0 d1 0f 2d bd 26 ef 84 3c fa 4b 91 3c 91 6e ef bc
       -0.04225141 0.016227316 0.017736424 -0.029227527
0000e0 be ae 17 bc df bb ed ba 38 72 a2 bb 34 15 17 3c
       -0.00925797 -0.0018137655 -0.0049574636 0.009221364
0000f0 9b 05 da bc 6d 2e 3b bb 07 1b 95 bd 83 7f c8 bc
       -0.026614001 -0.0028561607 -0.07280546 -0.024474865
000100 6a af 65 bd ab 50 b0 bd 93 9a 87 bc bb 87 d7 3c
       -0.05607549 -0.08609136 -0.016553199 0.026309839
000110 56 cc e9 bc b3 cb 82 bd 06 23 96 3b 2d 06 9a bd
       -0.028539818 -0.06386509 0.004581812 -0.07520709
000120 b7 1d 8c 3d 50 fb 45 bd ce 97 3c 3d 69 29 ce bc
       0.06841605 -0.048335373 0.04604321 -0.02516623
000130 22 2c e0 3b 61 b3 3e 3d 11 4a 0e 3d db 15 9c bc
       0.0068411985 0.046557788 0.034738604 -0.01905339
000140 ee d3 05 3d 7f e4 98 3b c2 b7 1b bd 3d b2 50 3c
       0.032672815 0.0046659107 -0.038017042 0.012737808
000150 b7 5b 4a 3c db e0 da bc 89 ce 5b 3d 1b cc f6 3c
       0.012350968 -0.026718548 0.053663764 0.030126622
000160 3d 18 58 3c 0d 30 7c 3c 8c b6 e8 3b a0 8a 74 3d
       0.013189373 0.015392316 0.0071018394 0.059702516
000170 80 80 e6 3c 36 46 3c 3c 3d 8a 10 3d a6 ce e3 bc
       0.028137445 0.011491349 0.035288084 -0.027808499
000180 40 35 a6 bc af 3d a2 3d 30 22 4f 3d 43 e1 a4 3d
       -0.020289063 0.079219215 0.050569713 0.08050778
000190 31 68 92 3d 4c 89 f9 3b ec 28 d5 ba 4b d9 fb 3c
       0.07148779 0.007615244 -0.0016262806 0.030743262
0001a0 bf 0b e1 3c 0d e7 94 3d 55 a5 b9 3d d2 0e 70 3d
       0.027471421 0.07270632 0.09064738 0.058607884
0001b0 db ff 2c bc 3b d5 29 3d e6 66 8e 3d ca f0 5f 3d
       -0.010559048 0.041463118 0.0695322 0.054672994
0001c0 c9 4a ef bb f6 25 d9 3d 7c 9e 0e bc 2d 57 9e 3d
       -0.0073026163 0.106029436 -0.008704778 0.07731471
0001d0 43 90 4d 3d 05 74 8b bd 28 42 cf bd 88 2a bb 3b
       0.050186407 -0.06809238 -0.1012004 0.005711857
0001e0 63 52 b9 bc cd cb 44 bd bb 4d 03 bd 52 fe 59 bc
       -0.022622293 -0.048045922 -0.03205655 -0.013305264
0001f0 e8 64 38 bd 20 22 ab bd 72 ca b0 3d 21 89 19 3d
       -0.045018107 -0.08356118 0.086323634 0.037484292
000200 fe 7f c8 3d 0f 0a 9c 3d 4a 49 64 ba 14 e9 2b 3c
       0.097900376 0.07619106 -0.00087084307 0.010492582
000210 a0 29 95 3d 2e 93 cd 3d d4 7b 94 3d b4 47 9d bd
       0.0728333 0.10037838 0.07250181 -0.07679692
000220 d5 69 2b 3d c2 a4 e5 bc ea db a7 bb a4 17 5b bd
       0.041848976 -0.028032664 -0.0051226513 -0.053489342
000230 a3 d5 8d 3c 4e b2 91 bd 97 db 8b 3c 23 d5 8d bd
       0.017313784 -0.07114087 0.017072482 -0.06925418
000240 68 05 1a 3d 0f 48 9b 3c 3e 45 8a 3c 44 3d 8c 3d
       0.037602812 0.018955259 0.01687872 0.06847623
000250 99 1f 03 bb 66 79 b5 3d 18 c4 0e bd 10 34 d6 3c
       -0.0020007847 0.088610455 -0.03485498 0.026147872
000260 33 af 6d 3d d7 02 03 bd 71 31 f1 3b 79 fd 31 bd
       0.05802841 -0.03198513 0.00736063 -0.04345462
000270 83 f3 be 3c 8a d5 1f bd 56 ff 28 3c 04 e1 09 bc
       0.023309475 -0.039022006 0.010314783 -0.008415464
000280 1f 89 1f 3d 59 52 47 3d 7f 8b 67 bd 08 ae 12 bd
       0.03894913 0.048662517 -0.05652952 -0.0358105
000290 99 db f6 bd 1d 97 c2 bc 9d db 10 be bb 4d 10 bd
       -0.12053604 -0.023753697 -0.14146276 -0.03523038
0002a0 99 0b 84 bd 02 0f da bd 3c c3 b8 bd 9a 4c 14 3c
       -0.064475246 -0.10647394 -0.09021613 0.009051466
0002b0 38 b9 a3 bd 6b 36 7d bb 21 5a 96 bd ac 86 ad bd
       -0.07994312 -0.0038637172 -0.073414095 -0.08472952
0002c0 f5 b3 98 bd 8b b6 50 bd 24 04 a7 3c eb 87 26 bc
       -0.07456199 -0.050955337 0.020387717 -0.010164241
0002d0 00 89 aa bd c8 d0 da bd 63 fe cc bd c4 6a b6 bd
       -0.08326912 -0.10684353 -0.10009458 -0.08907083
0002e0 55 fe 72 bd 96 c5 88 bd e5 1c 9d bd 73 fb 51 bd
       -0.05932458 -0.066783115 -0.07671527 -0.05126519
0002f0 47 42 d4 bb 61 11 41 3d 6e 5f f7 3c c6 09 c8 3c
       -0.0064776274 0.047135714 0.030196872 0.024418723
000300 bd a9 c6 3d bf 37 88 3d 86 2b f0 3d 19 fe d4 3d
       0.09700344 0.06651258 0.117270514 0.10400028
000310 a7 81 67 3c 6e 3d d6 3d 9f 07 0d bd 95 03 5e 3d
       0.014130033 0.104609355 -0.034431096 0.054202635
000320 89 54 65 bd 92 f3 1e 3d 96 50 1f 3d e1 73 10 3d
       -0.055988822 0.038806506 0.038895212 0.03526676
000330 27 72 29 3c 8b 89 82 3d 12 a5 18 bd 60 dc 48 bd
       0.010342157 0.063738905 -0.0372668 -0.04903829
000340 5e 4a 3f bd bf 99 0f bd 5a 2d 80 bd f2 fc d7 bd
       -0.04670178 -0.035058733 -0.0625865 -0.10546292
000350 c4 48 64 bd 3e 0c ef bd 01 7d db bd 3f 86 bc bd
       -0.055733457 -0.11672257 -0.10717202 -0.09205293
000360 b0 7a 6e bb 71 1f 97 3d 4d fa 74 3d c6 91 91 bb
       -0.0036389045 0.07379044 0.059809018 -0.0044424264
000370 0c d2 81 38 73 f0 83 3d 98 31 1a 3d 2f 57 61 3d
       6.1903236e-05 0.064423464 0.037644953 0.055014785
000380 d6 e8 58 3d bb cd d7 3c cc d9 0a bd 4a f3 1b bd
       0.052956425 0.026343217 -0.033899114 -0.038073815
000390 75 11 6c 3c 21 6f ae 3c 11 b1 07 bd 59 bb 0e 3d
       0.014408459 0.021293225 -0.033127848 0.034846637
0003a0 a5 2d 2f 3b 61 8f 90 bd 23 c7 82 3d 18 a0 a0 3c
       0.0026730087 -0.07058597 0.063856386 0.019607589
0003b0 94 48 15 3d 10 cc 30 3d bb 42 1a bd e2 3d 4f 3d
       0.03644617 0.04316336 -0.037661295 0.050596125
0003c0 12 d7 80 3d bd 58 9e 3c 98 c2 da bc 54 7f b2 3d
       0.062910214 0.019329423 -0.026704118 0.08715692
0003d0 11 13 01 3d de 57 0c 3d f8 2b 4b 3d f9 91 0c 3d
       0.031512324 0.034263484 0.04960248 0.034318898
0003e0 db 82 0d 3d 3c 5a 4f 3d ae 6d b0 3d e8 7f 22 3d
       0.03454862 0.050623164 0.0861467 0.039672762
0003f0 04 39 f2 bc 67 e2 55 3d 67 41 34 bc 59 a5 d5 3c
       -0.029568203 0.052217867 -0.011001921 0.02607982

bias f4 [32]
000000 98 2b b8 3d 57 4d b5 bc 49 cb 5f 3c 56 1e 64 bd
       0.0899269 -0.022131605 0.013659307 -0.055692993
000010 e8 58 0d 3d 96 d1 c3 bd 87 14 85 3d 42 49 9e 3c
       0.034508616 -0.0956146 0.06498056 0.019322041
000020 f1 c9 b3 3b f6 68 04 3d e5 cc 69 bd 7f d6 6f 3c
       0.00548672 0.03232666 -0.05708017 0.014638542
000030 92 7d f2 bc e9 88 96 bd bb 2c 03 bd d7 35 03 bd
       -0.029600892 -0.07350332 -0.03202508 -0.032033768
000040 12 92 51 bd 42 3d 24 3d 3f 18 d6 bd 51 1c 8c 3c
       -0.051164694 0.040097483 -0.10453843 0.017103346
000050 d7 35 8b bc d8 e7 52 bc c1 b8 34 3c 1a 29 89 bd
       -0.016993446 -0.012872659 0.011030377 -0.066972926
000060 fa 18 82 bd 19 55 fb bb d8 dd 8d bc 90 0d 35 bd
       -0.0635242 -0.0076700565 -0.017317697 -0.044202387
000070 5f ab aa bd e8 11 0b bb 80 5f bc 3d e3 d2 54 bd
       -0.08333468 -0.002122039 0.09197903 -0.05195893

weight f4 [32]
000000 01 09 6e 3f 98 79 86 3f 62 fb 7c 3f 52 cd 80 3f
       0.9298249 1.0505857 0.9882108 1.0062659
000010 23 03 86 3f 40 12 7e 3f 22 60 83 3f 05 20 7d 3f
       1.0469707 0.992466 1.0263712 0.9887698
000020 6a 91 85 3f 0a f1 7c 3f 50 31 71 3f 5d b4 81 3f
       1.0435002 0.98805296 0.9421587 1.0133168
000030 bc 08 83 3f 40 bb 6e 3f da 1b 82 3f 58 13 82 3f
       1.023704 0.9325447 1.016475 1.0162153
000040 20 9a 6e 3f 62 47 83 3f 66 94 82 3f 6b c2 82 3f
       0.93203926 1.0256159 1.0201538 1.0215582
000050 8b 0a 79 3f 37 fe 77 3f 76 f3 81 3f 30 27 7a 3f
       0.9728171 0.96872276 1.0152423 0.97716045
000060 7d e9 80 3f 19 ad 7d 3f f9 0e 7e 3f d5 d6 86 3f
       1.0071255 0.9909225 0.99241596 1.0534312
000070 2c 2f 72 3f bc 07 7a 3f 5b 15 7f 3f 4e dd 83 3f
       0.9460323 0.9766805 0.9964196 1.0301912

bias f4 [32]
000000 26 c4 02 bd e5 8b a5 3c 6f 52 ca bc 32 79 58 bd
       -0.031925343 0.020208308 -0.02469751 -0.052849956
000010 56 0a 5f 3c b4 7c 58 3c e1 0a 16 bd 3d 4b 1b bd
       0.013613304 0.013213325 -0.03663147 -0.03791355
000020 99 94 0c bc f4 53 4c bd 80 1d 90 bd 76 9b 92 bc
       -0.00858035 -0.04988475 -0.07036877 -0.017896395
000030 7a 57 6a bb 95 47 9c bc 7c ea 00 bd fa a5 25 bc
       -0.0035757707 -0.019077102 -0.03147362 -0.010110373
000040 ce 43 8c bd bd 97 4d 3d fd dc 82 3d c8 d1 67 bb
       -0.0684887 0.050193537 0.063898064 -0.0035372842
000050 44 b2 a4 bc 65 3f b0 bc 00 82 64 bd 53 27 2a bd
       -0.020104535 -0.021514604 -0.05578804 -0.04154141
000060 1f 44 8a 3c 50 9d 21 bd 2b 75 07 bd f4 9f 1b 3d
       0.016878186 -0.039456666 -0.033070724 0.03799434
000070 0b 3f b8 bd 5f 66 ca bc bd c9 9a bd 68 69 6a 3d
       -0.089963995 -0.024707017 -0.0755801 0.05722943

running_mean f4 [32]
000000 a5 a8 5d be 08 55 7b 3e 6f 3a 30 40 9b 84 20 3f
       -0.21646364 0.24544156 2.7535665 0.6270234
000010 ec fa a7 3f 66 e0 36 bf 01 0f c0 3f 06 d4 b6 3f
       1.312345 -0.71436155 1.5004579 1.4283454
000020 81 bf e8 3d 60 ac 55 3f 7d 73 73 be 80 f7 11 bf
       0.113646515 0.8346615 -0.23774524 -0.5701828
000030 9a 55 5c 3f ca 5f 17 bf 77 3b bb 3f ec 20 a3 3e
       0.8606812 -0.5913054 1.4627522 0.31861055
000040 13 8d b5 bf aa cb 29 c0 b2 d0 c2 3f 9a 99 99 3f
       -1.4183677 -2.6530557 1.5219939 1.2
000050 9a 91 8e 3d 87 f6 a2 3d f2 4a df 3e fb 57 fb 3e
       0.06961365 0.079571776 0.43611866 0.4909056
000060 1e 3e b2 3f fa 69 06 3f d8 75 1c 40 49 cf 23 3f
       1.3925207 0.5250546 2.4446926 0.6398817
000070 e8 b9 dc 3e a4 53 18 bf 1b 75 7e bf fd cc bd bf
       0.43110585 -0.59502625 -0.9939744 -1.4828182

running_var f4 [32]
000000 9d d8 e0 3f d3 df 21 40 e4 04 d3 40 15 94 05 40
       1.7566105 2.5292861 6.594347 2.0871632
000010 f8 20 b4 40 96 86 31 40 3d 1a 78 40 b9 d5 c4 40
       5.6290245 2.7738395 3.8766015 6.151089
000020 75 53 02 40 1a 00 24 40 61 0b be 3f bb a3 c6 3f
       2.0363438 2.5625062 1.4847223 1.5518717
000030 52 6e 7f 40 5f 46 9a 40 7e c7 96 40 53 3a 80 40
       3.9911084 4.82109 4.711852 4.0071197
000040 ce 8e 5a 40 23 b4 86 40 61 92 b3 3f 05 0a 8c 40
       3.414966 4.2094893 1.4029046 4.376223
000050 76 a1 4a 40 b1 c3 a7 3f c7 9a 92 40 54 d5 a6 40
       3.1661048 1.3106595 4.5813937 5.213541
000060 ba 08 a2 3f a5 90 be 3f f9 1e e7 40 cd 46 21 40
       1.2658913 1.4887892 7.222531 2.5199463
000070 d4 b5 64 40 a7 87 a0 3f be 6b 94 3f 9a 44 08 40
       3.573598 1.2541398 1.159538 2.129187

weight f4 [32, 32, 3, 3]
000000 19 9e 4b bc b9 34 4d bc a0 12 dd 3c 8e 3f b9 bc
       -0.01242783 -0.012524777 0.02698642 -0.022613313
000010 84 de 1d bc 86 03 e7 bc b5 79 ff bc fc e7 be bc
       -0.009635571 -0.028199922 -0.031185964 -0.023303978
000020 32 10 f4 bc 80 0a 67 bd d7 01 d4 bd eb 12 e9 bd
       -0.029792879 -0.056406498 -0.103519134 -0.113805614
000030 d1 65 a4 bc 99 46 a5 bd b5 c8 64 bd b7 2c a7 bd
       -0.020068081 -0.08070106 -0.05585547 -0.081628256
000040 99 6d 20 bd c9 5d f2 bc b5 92 83 bc 14 26 42 bd
       -0.03916702 -0.029585736 -0.016061166 -0.047399595
000050 b0 6e c7 bc cd f8 b8 bc 53 8a b6 3c 2b 09 32 3c
       -0.024344772 -0.022579575 0.022282755 0.010866444
000060 88 4d 60 3c 80 9f 46 3d be 6a 15 3d ea 5b 94 bc
       0.01369036 0.048491955 0.03647875 -0.018110234
000070 a0 44 94 3d 42 b5 7b bb 0d 6a 55 3d 0c e7 59 3d
       0.07239652 -0.0038407599 0.05210309 0.05319886
000080 2c 7f 41 3d b1 b9 cd 3b 63 7f 32 3d 32 42 27 3d
       0.04724042 0.0062782397 0.043578517 0.040834613
000090 32 86 a5 3d 0d fb 02 3d 77 77 eb 3c 94 1c b3 3d
       0.08082236 0.031977702 0.028743489 0.08745685
0000a0 47 35 e2 3c 01 06 41 3d f1 a1 e0 bb 47 d8 7e 3d
       0.027613295 0.047124866 -0.0068552424 0.062217977
0000b0 61 5a d0 3d 44 24 aa bc 17 72 77 bc fd d2 80 bd
       0.101734884 -0.020769246 -0.015102885 -0.06290243
0000c0 1c 84 e6 bc e2 05 17 3a 53 01 07 3d d0 c7 15 bd
       -0.028139167 0.00057610695 0.032960247 -0.03656751
0000d0 1a 91 5d bc a4 e9 59 bd 18 a7 db 3c 73 57 2b 3d
       -0.013523364 -0.053201333 0.026813075 0.041831445
0000e0 db f8 4f bb d6 14 c4 3c 28 1b f0 bb 1c 93 ef 3c
       -0.0031734023 0.023935717 -0.007327456 0.029244952
0000f0 eb ed cf bc 8c b6 e7 bb 82 2b 06 3d c2 ac 25 3d
       -0.025382003 -0.007071322 0.032756336 0.040447958
000100 ac a1 08 3d 87 93 97 3b 38 57 c6 bc e2 a6 8c 3c
       0.033357307 0.004625741 -0.024211511 0.01716942
000110 99 87 5c 3c 5d 24 df 3b fc ac 5f 3d 21 56 18 bd
       0.013460063 0.0068097548 0.05460833 -0.037191514
000120 30 af 8b 3a df e5 6b bd 52 42 8b bc 04 b4 01 bd
       0.0010657068 -0.05759227 -0.016999397 -0.031665817
000130 a0 f3 88 bc 19 0b c5 bb 1e 60 be bd c9 49 12 bd
       -0.016717732 -0.006013286 -0.09295677 -0.0357149
000140 f0 97 71 bd a2 8b 8b 3d 06 86 a2 3d 45 1f 86 3c
       -0.05898279 0.06813742 0.07935719 0.016372332
000150 14 35 b2 3c 51 8c 8d bc d9 54 64 bc e0 34 cb 3b
       0.021753825 -0.017278822 -0.013936245 0.0062013716
000160 ed 4d f8 bb cf 58 00 bd 4e 1c af bd f4 71 82 bd
       -0.007577649 -0.031334694 -0.085503206 -0.06369391
000170 f7 25 43 bd cb c5 05 bd f7 25 35 ba 72 39 0e 3d
       -0.047643628 -0.032659333 -0.0006910259 0.034722753
000180 c7 16 70 3c 3c 7a a5 bd 78 43 ba bd 94 e6 88 bd
       0.014653868 -0.08079955 -0.090949 -0.06684604
000190 ff 87 e4 bc 56 ad f6 bd 5e 00 1c bd 00 d6 c1 bd
       -0.02789688 -0.1204478 -0.038086288 -0.094646454
0001a0 3f bf 99 bd d5 f9 8f bd 68 6c 03 bd de ca e2 bd
       -0.075071804 -0.070300736 -0.032085806 -0.1107385
0001b0 db 7b 7e ba d9 06 c4 3d 6a da 45 3c 65 2b a6 3d
       -0.0009707787 0.095716186 0.012076 0.081137456
0001c0 96 29 92 3c f8 25 a3 3d ad 6c d4 3d da ff 2b 3d
       0.017842095 0.07966226 0.10372291 0.041992046
0001d0 c1 89 a0 3d 36 49 74 3d 7b df 93 3d 4e 50 40 bc
       0.078387745 0.059640132 0.0722036 -0.011737896
0001e0 89 cf 4b 3d 21 60 85 3d fb 5f b9 3c 4c 71 89 3d
       0.049758468 0.06512476 0.022628775 0.06711063
0001f0 18 7b 84 3c a7 fb 9d 3d 1a 1d b8 3c 84 7b 93 3d
       0.016171977 0.077140145 0.022474814 0.07201293
000200 62 2f 20 3d 85 fb 37 3c c1 3c 96 bb c4 c4 bc 3d
       0.039107688 0.0112294005 -0.004584879 0.092172176
000210 3b 94 66 3d 0b 94 81 3d d5 bc 9a 3d a7 62 91 bb
       0.056293707 0.06327065 0.07555548 -0.004436809
000220 e6 fa 65 bb e3 af 01 3c 01 68 aa bd 4e 99 b2 bd
       -0.0035092174 0.00791547 -0.083206184 -0.08720647
000230 9e 71 ad 39 22 8f 44 bd f5 1d 50 bd 3f 46 9a bd
       0.00033081783 -0.047988065 -0.05080982 -0.0753293
000240 c1 d0 71 3d 82 08 73 3c b9 6e 83 3d 56 64 0c 3d
       0.059036974 0.014833571 0.06417603 0.034275375
000250 5e 2e ca 3b 54 5f c2 3c 62 dd 37 3d 89 74 f8 bc
       0.006170078 0.023727097 0.04488886 -0.030329006
000260 f1 62 41 bc 52 d6 f7 bc 3d be d0 3d 46 06 84 3d
       -0.011803375 -0.030253563 0.10192535 0.06446509
000270 45 ad 8d bd 08 c0 bf 3c 6d c2 91 3c bd 18 4d bd
       -0.06917814 0.023406997 0.017792905 -0.05007242
000280 ea f6 18 39 8d 9d 78 3c e5 b3 15 bd a0 65 5f 3d
       0.00014587832 0.015174282 -0.036548514 0.054540277
000290 a9 b6 9e 3b db 35 cd 3c ae 62 99 3d c9 50 4f 3c
       0.004843552 0.025050094 0.07489525 0.012653538
0002a0 45 fe a2 3c 0f ca c6 bc ff cb d5 bc e9 3a 85 3d
       0.019896636 -0.02426627 -0.02609825 0.06505377
0002b0 5c 05 d0 bc 07 0c 4e bc dc 56 04 3d 4e f8 48 3d
       -0.02539318 -0.01257611 0.032309398 0.049064927
0002c0 4f d3 f2 3c cc 3c a3 3d 48 23 4f 3d e0 f1 09 3b
       0.029641775 0.079705805 0.050570756 0.002104871
0002d0 d6 72 25 bc cf 89 b6 3c 33 74 51 3c f1 1a 06 3c
       -0.01009818 0.02228251 0.012784052 0.008185134
0002e0 96 a1 be 3c 33 50 f2 3c 2d 94 6c 3d cf 92 02 3d
       0.02327041 0.029579258 0.0577585 0.03187829
0002f0 21 e4 38 bc d3 2b 9a 3d 26 af a2 3d 12 4d 74 3c
       -0.011284859 0.0752789 0.07943563 0.014910953
000300 08 54 e8 3d 89 7f b0 3d 4b 97 d8 3d be e2 af 3d
       0.11344153 0.086180754 0.10575732 0.085881695
000310 c9 af 71 3c 94 e1 be 3d 5e 8d 85 bd 50 48 97 bc
       0.014751383 0.09320369 -0.06521104 -0.018467098
000320 0e 4d 28 bc d6 e4 8a bd f4 4e e4 b9 fa 43 1b 3d
       -0.0102722775 -0.06781928 -0.00043546373 0.037906624
000330 9e 39 83 3a aa 2c 39 bd 0e 60 91 3c 71 73 aa 3d
       0.0010011678 -0.04520861 0.017745998 0.083228
000340 26 2b 34 3d e0 48 22 3d 00 6e f8 3c b5 4f d5 3d
       0.043986462 0.03962028 0.03032589 0.104155935
000350 4d f0 67 3d 74 7a b7 3d 6e a6 93 3d e9 4e cc 3d
       0.056625653 0.08958903 0.07209478 0.099759884
000360 69 f8 6d 3d 99 7f a0 3d 70 ff 0e 3d 1c c4 fd bb
       0.05809823 0.07836837 0.034911573 -0.0077443253
000370 9b f8 2c 39 2d b2 0d 3d 72 02 0d bd 53 93 94 3c
       0.00016495811 0.03459375 -0.03442616 0.018136656
000380 c8 0a 9c 3d ad 1d 62 bc dc 1e 6e 3c 40 6e f5 bc
       0.07619244 -0.013801021 0.014533725 -0.029959798
000390 01 eb c7 3b 0d 53 ad bd e7 c0 b3 bd ef 4d bd 3b
       0.0061010127 -0.08463106 -0.087770276 0.0057771127
0003a0 8b 3e a6 bd 0a 1f d0 bc 92 a2 7d bc 0d bb d0 bc
       -0.08117398 -0.025405426 -0.015480654 -0.025479818
0003b0 c7 03 7e 3d be d1 29 3a c9 66 05 3d 2c be f0 bc
       0.06201532 0.00064780924 0.032568727 -0.029387556
0003c0 f7 dd 3a bc 8f 59 67 3d e2 54 c6 bb d3 98 a2 3d
       -0.01140546 0.056481894 -0.0060525993 0.07939305
0003d0 d7 d2 1f 3d 90 66 3a bc d5 5b 3e bd 90 a7 96 bc
       0.039019432 -0.011376992 -0.046474297 -0.018390447
0003e0 52 b7 61 bd 2a bb 86 3d c0 0c 89 3d 6d 83 44 3d
       -0.05510647 0.065786675 0.06691885 0.0479769
0003f0 8a 74 bc bd f4 94 8c 3a 03 f0 6d bc f6 bb 6a bd
       -0.092019156 0.0010725544 -0.014522555 -0.05730816

bias f4 [32]
000000 d0 d9 e8 3d 4c 4b 86 3c d3 bf ed 3d c1 13 07 bc
       0.113696694 0.016393326 0.11608853 -0.008244456
000010 65 33 81 bd de c3 e6 3c a7 4b 89 3c 7e e6 63 bc
       -0.06308631 0.028169569 0.016759707 -0.013909934
000020 ae 30 8b bd 98 cf 76 3c 47 11 a5 3d 49 28 ef bb
       -0.06796394 0.015064143 0.08059936 -0.0072985035
000030 ae c3 fa bc dd 4b 63 3d 08 11 6c 3d 27 93 06 bd
       -0.030610885 0.05549227 0.05763343 -0.03285518
000040 05 a4 8b 3d 57 50 a6 bc d6 0c 32 bd 1b 04 82 3d
       0.068183936 -0.02030198 -0.043469273 0.06348439
000050 1a 8f 90 3d e5 88 6c 3b 99 ec 42 3c 92 00 5e 3d
       0.070585445 0.0036092338 0.01189723 0.054199763
000060 46 8a d4 3d 12 3a 12 3d 4b 3f d8 3d fc c6 27 3d
       0.10377936 0.03569991 0.10558947 0.04096125
000070 3c f2 87 3d de 93 5d bd d7 04 67 bc e8 5f e8 bc
       0.066379994 -0.054096095 -0.014100275 -0.028366044

weight f4 [32]
000000 8e 8d 78 3f ce 7d 7f 3f b4 e7 7b 3f fc 47 73 3f
       0.97090995 0.9980134 0.98400426 0.95031714
000010 b1 71 85 3f 3a 9a 7d 3f c4 b1 88 3f ff 7c 82 3f
       1.0425321 0.99063456 1.067925 1.0194396
000020 7b 6a 7d 3f 39 fe 83 3f 7c 9c 79 3f 68 a0 7f 3f
       0.989906 1.0311958 0.975044 0.99854136
000030 f4 65 73 3f 55 81 81 3f 9f 90 7e 3f 23 5c 85 3f
       0.95077443 1.0117594 0.99439424 1.0418743
000040 36 55 82 3f a8 21 84 3f 0f 0a 83 3f bc 85 71 3f
       1.0182254 1.0322771 1.0237445 0.9434469
000050 a5 2b 83 3f dc d0 7c 3f 0b a9 87 3f 26 18 85 3f
       1.0247694 0.98756194 1.0598463 1.0397995
000060 40 13 6d 3f d1 87 7e 3f 2a 39 84 3f c8 90 8a 3f
       0.926075 0.9942599 1.0329945 1.0825434
000070 e5 19 85 3f 1e f7 78 3f 2d 21 78 3f 08 aa 7d 3f
       1.0398527 0.9725207 0.9692562 0.9908757

bias f4 [32]
000000 bd dd 0f bd 67 e3 66 3d e7 92 0b bd 38 8a 5e bd
       -0.035123575 0.05636921 -0.034075644 -0.054331034
000010 15 d8 e7 bb 0c b9 d2 bc 23 f7 4e 3c a7 34 0c 3c
       -0.0070753195 -0.025723003 0.012632164 0.008557475
000020 3e bd d9 bc 9a b3 c3 bc 18 48 25 bd dd 6e b6 bb
       -0.026579496 -0.023889352 -0.040351957 -0.005567415
000030 8f 2c de bc 38 9d ad bc 41 79 ed bc a6 66 db bb
       -0.027120857 -0.021193132 -0.028988482 -0.0066955863
000040 5f 37 2f bd 2e b0 0d 3d 20 96 db 3c 9d cc 68 bb
       -0.042777415 0.034591846 0.026804984 -0.003552235
000050 cb 17 41 bc af 9e 2e 3b 39 71 bf bc a3 08 f3 bb
       -0.011785458 0.0026644876 -0.023369418 -0.007416801
000060 c8 15 91 bd 89 0e 97 bd dd 01 46 bd 66 b6 75 3c
       -0.070842326 -0.07375819 -0.04834162 0.0149971
000070 73 fe 36 bb 67 af ad bc db 07 26 bc 5a f1 be 3c
       -0.002792266 -0.021201802 -0.010133709 0.023308445

running_mean f4 [32]
000000 49 4d 92 3f e3 88 07 c0 60 09 02 c0 1d 20 ce be
       1.1429836 -2.11773 -2.0318222 -0.40258875
000010 c2 cd aa bf 55 3b 15 c0 7e 6b 3c 40 db e4 88 bf
       -1.3344042 -2.3317463 2.9440608 -1.0694841
000020 5f 03 4e bd a3 28 3d 3f 62 96 56 40 ea 38 96 bf
       -0.050296184 0.7389013 3.3529286 -1.1736119
000030 8b f1 2b 40 9b 42 45 40 45 81 63 40 d7 0f 0e 3e
       2.6866176 3.0821903 3.554765 0.1387323
000040 e0 bd e8 3f 85 48 f1 bf 3a 4d 8b bd a5 fb af 3f
       1.8182945 -1.8850256 -0.06801839 1.3748671
000050 df ea 09 40 5c 52 92 3e 76 b0 e8 3f 9b d1 46 40
       2.1549604 0.2857846 1.8178852 3.1065433
000060 8e 60 3d 40 18 03 6e 40 39 06 46 be fe d3 b2 3e
       2.9590182 3.7189388 -0.19338311 0.34927362
000070 ae 48 9a 3f 0c da 52 be c3 6f a6 3f 8f 21 c9 3f
       1.205343 -0.20590991 1.3002857 1.5713366

running_var f4 [32]
000000 da ec 90 40 61 68 90 41 18 5f 2b 41 33 84 bc 3f
       4.5289125 18.050966 10.710716 1.4727844
000010 97 60 46 41 56 d8 26 41 8c 61 91 41 53 88 0c 41
       12.3985815 10.427816 18.17263 8.783282
000020 2d 72 27 40 14 2c d3 40 00 0e 98 41 91 a6 73 40
       2.6163437 6.5991306 19.006836 3.8070414
000030 c6 d0 ce 40 aa c6 1a 41 a5 a3 61 41 dd be 87 40
       6.462985 9.673502 14.102452 4.2420487
000040 28 b6 26 41 81 58 bb 40 c7 1e 58 40 2e b5 1f 41
       10.419472 5.8545537 3.3768785 9.981733
000050 3f e1 25 41 7e b5 b3 40 4a b2 4f 41 6f 93 92 41
       10.367492 5.615905 12.981028 18.32199
000060 14 75 8b 41 94 39 0d 41 b9 7b c1 40 b6 fd 34 40
       17.432167 8.826557 6.046353 2.8279853
000070 ab a9 32 41 5c 8d 98 40 35 e1 f6 40 16 b1 64 40
       11.166423 4.767256 7.714991 3.5733085

weight f4 [32, 32, 3, 3]
000000 fd 74 53 bd 16 3f 89 bd b8 c7 f7 bc fe 28 30 3c
       -0.05162524 -0.06701486 -0.0302466 0.010751961
000010 c7 86 88 bb 32 2b aa bd 31 55 a9 bd 55 22 55 bd
       -0.0041664573 -0.0830902 -0.08268202 -0.052034695
000020 c7 23 88 bd c9 31 9a bc 7e e7 bb ba 25 33 ac bb
       -0.06647449 -0.018822568 -0.0014335958 -0.0052551203
000030 ee 3a 20 bd 11 3a 5b bc 9c e7 75 3d f0 48 b2 bd
       -0.0391187 -0.013380543 0.060035333 -0.08705318
000040 35 ee 7d bc a7 1a 98 bc 1d 88 0a 3d c0 51 99 3c
       -0.0154986875 -0.018567396 0.033821214 0.01871574
000050 47 19 06 3d e3 80 da 3c 4d 26 1d 3d 38 54 48 bd
       0.03273895 0.026672786 0.038366605 -0.048908442
000060 ed f5 a1 3c 32 6f f1 bb dc 79 5f bd 7a 06 d9 3d
       0.019770587 -0.007367992 -0.054559574 0.105969384
000070 2c 0b c9 3d 5f 60 d9 3d b0 9b a7 3c ec 55 a0 3d
       0.09816584 0.106140845 0.02045998 0.07828888
000080 88 b3 9f bc d8 ed 6b 3d 1c b5 a8 3c 88 62 11 bc
       -0.019494787 0.057599872 0.020594172 -0.008873589
000090 7c b2 a0 3c 25 56 15 3d 93 5f 26 3c e8 aa 4b 3d
       0.019616358 0.036459107 0.010154623 0.049723536
0000a0 f7 49 34 bc b9 96 fe 3c 0b 26 04 bd 8c 7b b1 3d
       -0.011003963 0.03107773 -0.032262843 0.08666143
0000b0 67 38 15 3c 4b 00 87 3c 4b 2b d6 ba 7e c6 ab 3c
       0.009107686 0.016479632 -0.0016339807 0.020968672
0000c0 3c 01 cb bd 58 ba a0 bc ec 57 27 bd 89 b5 c9 bd
       -0.09912345 -0.019620106 -0.040855333 -0.09849078
0000d0 2b fe 39 bc 3f 7f 24 bd cf 8e 72 3d ef 22 3a 3d
       -0.011352102 -0.040160414 0.059218224 0.04544347
0000e0 da 5f a4 bc 64 fb 61 3d 7b e4 88 bd 01 a7 b7 3c
       -0.020065237 0.055171385 -0.06684204 0.0224185
0000f0 ad 2e 9a 3d 08 c4 7a 3c 30 35 13 3c dd ea 31 bd
       0.07528434 0.015305527 0.008984849 -0.043436874
000100 7d e6 1a 3d e9 52 fb bc 20 49 d9 3b 0a a6 de ba
       0.037817467 -0.030679183 0.0066310316 -0.0016986739
000110 7d 79 cc bc 13 a0 57 3d 14 5b ed 3c 32 bf 4d 3d
       -0.024960274 0.052642893 0.028974093 0.050231166
000120 d9 81 8d 3c c3 0b 27 bd 08 b9 35 3d 9f 3a 43 bd
       0.01727383 -0.0407827 0.044365913 -0.047663327
000130 22 ac a8 bc 67 d6 1e bd 0f 94 8f bc 84 c0 2d bd
       -0.020589892 -0.03877869 -0.017526655 -0.042419925
000140 50 af 9b bd e8 b4 53 3d b7 cd b5 3d bc 7f 75 3d
       -0.076017976 0.051686198 0.088771276 0.05993627
000150 8a e9 21 3c eb 61 13 bc a4 e3 d9 3b 52 e2 11 3d
       0.00988234 -0.008995513 0.0066494513 0.035616226
000160 c2 94 d8 3c a7 61 56 bd b2 78 1b bd 57 47 37 bd
       0.02643812 -0.052339222 -0.0379569 -0.04474577
000170 d8 01 3b bd 2c 0e 65 bc 6f 31 8a bd af 0f a3 bc
       -0.045656055 -0.01398043 -0.0674771 -0.01990494
000180 91 57 c9 bd 7b 63 b0 bb b7 4c cf bd e6 4e b8 bd
       -0.09831155 -0.0053829527 -0.10122054 -0.08999424
000190 21 71 cc bd af d8 7a bd 63 8a 72 bd f8 b3 df bd
       -0.09982515 -0.0612418 -0.059214007 -0.10922998
0001a0 a6 c2 cf bd 3b 97 7f bd 9b c0 ef bd a2 17 51 bc
       -0.10144548 -0.062400084 -0.117066585 -0.012761982
0001b0 cc 7a 45 3d 3f 74 7a 3d 40 fe b8 3b 9b c8 fd bc
       0.04821281 0.061146017 0.0056455433 -0.030979445
0001c0 e4 0e 72 3d 79 e0 d0 bc 63 8d d6 3d 14 34 18 3c
       0.059096232 -0.025497662 0.10476186 0.00928976
0001d0 1b 1b 42 3d f4 2e 42 bc fc c5 f0 bc ea 0c a2 3b
       0.04738913 -0.011852015 -0.029391281 0.004945387
0001e0 c9 96 04 3d ff 55 12 3d 96 66 20 3d 3d ef bf bd
       0.032370362 0.035726544 0.039160334 -0.09371803
0001f0 88 cf 3f 3b 45 7c b2 3b 14 ed 47 3d cc f6 8b 3d
       0.0029267985 0.005446943 0.04881008 0.06834182
000200 8f 76 aa bb 98 60 49 3d c6 1c 70 3d af c3 8b 3c
       -0.0052021216 0.049164385 0.05862119 0.017061083
000210 ac 42 84 3d 18 84 98 bb 38 04 9c bc 2e f5 45 bc
       0.06458029 -0.0046544187 -0.01904498 -0.012082381
000220 c3 dc 28 3d d0 e4 fb 3c 3e a6 17 bd 49 bc 55 3c
       0.04122616 0.030748755 -0.037023775 0.013045379
000230 3c 56 0c 3d 41 41 59 bd ff 3f 74 bd cb 04 50 bc
       0.034261927 -0.053040747 -0.059631344 -0.012696455
000240 e9 57 3c 3d 46 b7 e6 3a 83 6d 6e 3d e1 94 3c 3d
       0.045982275 0.0017602227 0.058209907 0.04604042
000250 6c e8 03 3d 87 f9 18 3c 62 ae 14 3d 9c cb b9 3c
       0.032204077 0.009336836 0.036299117 0.022680096
000260 46 ab df b9 5d 02 3c 3d b3 ba a9 bc d2 bf ef 3c
       -0.00042661483 0.04590069 -0.020718908 0.029266272
000270 07 b9 7a bb 5b b7 35 3c a4 cf 99 3b 94 5d 4f bd
       -0.0038257258 0.011091079 0.004693942 -0.050626352
000280 f1 29 38 3d 02 f0 2c bc 45 2b 18 bd 87 b4 b0 3d
       0.044961873 -0.010555269 -0.03715064 0.08628183
000290 3f 63 04 3d 61 52 a2 3d 54 07 12 3d a5 66 8d 3d
       0.03232121 0.07925869 0.03565152 0.069043435
0002a0 e8 4e 64 3b a3 8e 7b 3d 78 ed 91 bc d4 b3 00 bc
       0.003483707 0.061415326 -0.01781343 -0.007855374
0002b0 1f 76 4f 3c 30 d6 6e 3d 96 03 86 bb 26 b7 0d 3d
       0.01266244 0.058309734 -0.004089783 0.034598492
0002c0 8c ac 6b bb dc 7c 11 3b f7 8a 45 3d a6 fc aa 3d
       -0.0035961 0.0022199666 0.04822823 0.0834897
0002d0 bf 7d 85 bd 31 3a ce 3c b9 fc 82 bc 27 c6 87 3c
       -0.06518125 0.025174232 -0.015989648 0.016573979
0002e0 a8 b6 84 bd a8 62 5c bd a3 3d 4e 3a d4 c0 12 bd
       -0.064801514 -0.053805023 0.0007867461 -0.035828426
0002f0 25 af 39 bc 4f 0d 1d bc 88 cc ad bc 76 66 1d 3d
       -0.011333262 -0.009585693 -0.021215692 0.038427792
000300 ab 51 7f bd 54 cd a0 bc 64 80 0f 3c 96 3d d1 3c
       -0.062333744 -0.019629158 0.008758638 0.025542062
000310 23 4e 7e bd 83 57 9a bd 17 36 33 3d 8b 3b 8e 3c
       -0.062086236 -0.07536223 0.043752756 0.017362377
000320 40 27 79 3d 69 c6 ea 3b 50 af f3 bc 17 81 25 3a
       0.060828447 0.0071647656 -0.029746681 0.00063134864
000330 81 16 0a bd de fa 8f 3c ae 52 8d bd fd c7 9a 3d
       -0.033712868 0.017575677 -0.069005355 0.07557676
000340 69 5f 64 bc ab f1 d3 bb 14 72 ad 3d 6e 9d 9d 3b
       -0.013938763 -0.006468018 0.08469024 0.004810027
000350 1e cb 85 3d f2 3e 0b 3d 8c 53 99 3c ad d3 51 3d
       0.06532882 0.033995576 0.018716596 0.05122726
000360 23 a9 40 3d f8 9f d0 b8 bb ee 2d 3d 78 8f 3c 3d
       0.0470363 -9.9480094e-05 0.042464 0.04603526
000370 78 b5 3e 3d 82 55 c7 3c 10 15 03 bc 27 7f e0 bc
       0.04655978 0.024332765 -0.008000627 -0.027404381
000380 08 1f 99 3d d9 07 e5 bb eb 49 22 bd 40 87 93 bd
       0.07476622 -0.006989461 -0.039621275 -0.07203531
000390 0a 95 f7 bc 20 25 ae bd 49 ef a7 bd 4d ae cf bd
       -0.030222435 -0.08503175 -0.08199937 -0.10140667
0003a0 0e 33 c0 bc 78 e9 58 bd 36 71 0e bd 39 7e 06 bd
       -0.023461845 -0.05295703 -0.034775935 -0.03283522
0003b0 75 58 ac bc b2 8c 82 bd 40 d1 33 bd b5 ed 0d bb
       -0.021038273 -0.06374492 -0.04390073 -0.0021656577
0003c0 5c ee f9 3b 80 60 0e bd 72 f8 82 bd 6d b9 cc 3d
       0.0076272916 -0.03476 -0.063950434 0.09996305
0003d0 66 71 55 3d b0 73 8b 3d bb 74 e7 3d a6 e7 9f 3d
       0.0521101 0.06809175 0.113015614 0.07807855
0003e0 29 23 49 3d 03 c4 40 bd bd 30 07 bc 46 56 1d b9
       0.049105797 -0.04706193 -0.008251366 -0.00015004826
0003f0 8e ee ad 3d 4c 86 d3 bb a5 10 a3 3d e7 ee f0 3c
       0.08492766 -0.0064552184 0.07962159 0.029410793

bias f4 [32]
000000 d9 c5 d5 bc bf a5 82 bc 7c 19 9b bb be 37 ec bb
       -0.026095318 -0.015948175 -0.0047332626 -0.0072087934
000010 14 23 27 bd bd 21 7e 3d 97 a1 28 3d 9c 99 b0 bc
       -0.040804937 0.062043894 0.04116973 -0.021557622
000020 c8 30 29 bd 7f 04 83 bc db 16 cd 3c 24 7c 7e bd
       -0.041306287 -0.015993355 0.025035312 -0.06213011
000030 d5 1c 76 3c b2 22 c0 bd 29 ca 2c bd a2 6a 8b bd
       0.0150215225 -0.093816176 -0.042184982 -0.06807448
000040 f2 89 9f bc 07 31 55 bd 2d 77 8b bd 8c a4 59 bc
       -0.019474957 -0.05204871 -0.0680984 -0.01328386
000050 c5 5a 27 bd e3 2f 41 bc a0 58 9f bd 25 96 07 3d
       -0.04085805 -0.011791202 -0.07780576 0.033102173
000060 5c c8 28 3d 45 fb 00 3d 25 98 68 bd f7 3f 5e 3a
       0.041206703 0.03148963 -0.05678572 0.00084781594
000070 05 51 62 3d 3c 1e d9 3b c4 fe ab bc 57 61 5e bb
       0.055253047 0.0066259187 -0.020995505 -0.003393253

weight f4 [32]
000000 79 c9 7d 3f 67 ac 82 3f de 32 7a 3f a0 17 76 3f
       0.9913555 1.0208863 0.9773387 0.961298
000010 b8 a2 80 3f 32 11 82 3f 88 c0 88 3f 36 6a 83 3f
       1.0049658 1.0161498 1.0683756 1.0266788
000020 c1 63 77 3f f5 0d 83 3f a6 6c 73 3f 19 86 7c 3f
       0.9663659 1.0238634 0.9508766 0.98642117
000030 d9 81 78 3f 39 5b 81 3f 8d ed 72 3f 50 f1 81 3f
       0.9707313 1.0105964 0.94893724 1.0151768
000040 5d ca 80 3f 40 00 76 3f 1d d4 7d 3f 24 c9 75 3f
       1.0061756 0.9609413 0.99151784 0.9601004
000050 b9 68 80 3f ba b1 7e 3f 0f 44 7f 3f 06 5d 81 3f
       1.0031959 0.9948994 0.99713224 1.0106514
000060 fe 7c 76 3f 98 89 83 3f 43 c6 7e 3f fe b1 8a 3f
       0.9628447 1.0276365 0.99521273 1.0835569
000070 8b ee 80 3f 30 cb 80 3f 69 73 7b 3f 75 b1 83 3f
       1.0072798 1.0062008 0.98222977 1.028853

bias f4 [32]
000000 dc 1e db bc 73 d2 9d 3d 3e 45 3f bd 5e 49 28 bd
       -0.026748113 0.07706156 -0.046696894 -0.041085593
000010 40 34 c0 3b 0c b9 d2 bc a9 f5 21 3c 36 98 94 bc
       0.0058656037 -0.025723003 0.00988523 -0.018138986
000020 32 8f a4 3a f4 3e d4 bc e7 9a 87 bd d4 3f fd bb
       0.0012554883 -0.025908925 -0.06621342 -0.007728556
000030 6a aa f4 bc af 19 e9 bb 2b 36 4d bd 28 e6 a9 bc
       -0.029866416 -0.0071136574 -0.050100487 -0.02073963
000040 55 2b 21 3b 1c 5f 66 3c 16 11 c6 3c 43 e8 88 bd
       0.0024592478 0.014060762 0.02417807 -0.066849254
000050 f7 50 dd bc 42 e7 a4 3c 2b 3f df bc 58 34 23 3a
       -0.027016146 0.020129804 -0.0272518 0.00062257564
000060 28 48 d0 bc 4a ca a8 bc ce 2e 44 bd 79 7d 66 3c
       -0.025425032 -0.020604271 -0.0478962 0.014068001
000070 9e b4 d3 bb 82 c2 d8 bc cb cb 81 bd fd 59 fb 3b
       -0.00646074 -0.026459936 -0.063376985 0.0076706395

running_mean f4 [32]
000000 0d ef c3 3d b3 7a 45 c0 91 2b 66 3d 42 a1 02 c0
       0.0956708 -3.085614 0.056193892 -2.0410924
000010 c1 1a a6 c0 a8 a5 94 bf 4a 7a 10 40 bf 43 91 3f
       -5.190766 -1.1613054 2.257464 1.13488
000020 b1 30 4a 40 6d 79 f7 3f b7 49 38 40 d4 ee 8f c0
       3.159222 1.9333931 2.8794992 -4.497904
000030 1f 11 6d 40 ee 89 a7 3f 1b 4b 4e 40 98 e0 d6 3f
       3.70417 1.3088968 3.223334 1.678729
000040 52 87 95 40 b8 cd 41 c0 47 da 99 3f 84 90 21 3f
       4.6727686 -3.028181 1.2019738 0.6311114
000050 8a 56 94 40 22 dc 37 c0 8f 46 87 3f 51 ca 2f 40
       4.635564 -2.8728108 1.0568408 2.7467234
000060 11 c2 d7 bf 9c 90 9f 3f 65 7c d2 3e 9f 2b ac 3f
       -1.6856099 1.2466006 0.4111053 1.3450812
000070 79 69 9c 3f 8e c9 25 c0 90 d0 93 40 6a 63 00 40
       1.2219688 -2.590427 4.6192093 2.0060678

running_var f4 [32]
000000 39 34 14 41 4a 42 04 42 1f 1b 1c 41 e4 21 b5 40
       9.26275 33.064735 9.756621 5.660387
000010 41 b2 46 42 d0 cf 01 41 bb 4d de 41 f2 c1 98 40
       49.674076 8.113235 27.787954 4.773675
000020 88 76 d9 40 e3 04 38 42 a1 0a 8a 41 a0 7e 46 42
       6.795719 46.004772 17.25519 49.623657
000030 50 be 2a 41 38 f7 bf 40 1a c3 8e 41 45 0a fe 40
       10.671463 5.998928 17.845264 7.9387536
000040 62 7f 35 42 53 e1 57 41 3e 5e 40 41 20 2b 85 40
       45.374397 13.492511 12.023008 4.1615143
000050 28 58 08 42 80 77 f9 41 8a 81 90 41 14 0f 5a 41
       34.08609 31.18335 18.063251 13.628681
000060 bd 91 a3 41 ba c1 a6 41 b6 af 76 40 9f 63 5f 41
       20.446161 20.844593 3.8544745 13.961822
000070 2a 1c ec 40 91 1d 1b 41 94 48 64 42 a9 c1 62 41
       7.378438 9.694718 57.070877 14.17228
